…
           'SCALES': [600],
           'SNAPSHOT_INFIX': 'stage2',
           'SNAPSHOT_ITERS': 10000,
           'USE_FLIPPED': True,
           'USE_PREFETCH': False},
 'USE_GPU_NMS': True}
Loaded dataset `voc_2007_trainval` for proposal generation
WARNING: Logging before InitGoogleLogging() is written to STDERR
I1018 08:40:52.470888 11016 net.cpp:50] Initializing net from parameters: 
name: "VGG_ILSVRC_16_layers"
input: "data"
input: "im_info"
state {
  phase: TEST
}
input_shape {
  dim: 1
  dim: 3
  dim: 224
  dim: 224
}
input_shape {
  dim: 1
  dim: 3
}
layer {
  name: "conv1_1"
  type: "Convolution"
  bottom: "data"
  top: "conv1_1"
  convolution_param {
    num_output: 64
    pad: 1
    kernel_size: 3
  }
}
layer {
  name: "relu1_1"
  type: "ReLU"
  bottom: "conv1_1"
  top: "conv1_1"
}
layer {
  name: "conv1_2"
  type: "Convolution"
  bottom: "conv1_1"
  top: "conv1_2"
  convolution_param {
    num_output: 64
    pad: 1
    kernel_size: 3
  }
}
layer {
  name: "relu1_2"
  type: "ReLU"
  bottom: "conv1_2"
  top: "conv1_2"
}
layer {
  name: "pool1"
  type: "Pooling"
  bottom: "conv1_2"
  top: "pool1"
  pooling_param {
    pool: MAX
    kernel_size: 2
    stride: 2
  }
}
layer {
  name: "conv2_1"
  type: "Convolution"
  bottom: "pool1"
  top: "conv2_1"
  convolution_param {
    num_output: 128
    pad: 1
    kernel_size: 3
  }
}
layer {
  name: "relu2_1"
  type: "ReLU"
  bottom: "conv2_1"
  top: "conv2_1"
}
layer {
  name: "conv2_2"
  type: "Convolution"
  bottom: "conv2_1"
  top: "conv2_2"
  convolution_param {
    num_output: 128
    pad: 1
    kernel_size: 3
  }
}
layer {
  name: "relu2_2"
  type: "ReLU"
  bottom: "conv2_2"
  top: "conv2_2"
}
layer {
  name: "pool2"
  type: "Pooling"
  bottom: "conv2_2"
  top: "pool2"
  pooling_param {
    pool: MAX
    kernel_size: 2
    stride: 2
  }
}
layer {
  name: "conv3_1"
  type: "Convolution"
  bottom: "pool2"
  top: "conv3_1"
  convolution_param {
    num_output: 256
    pad: 1
    kernel_size: 3
  }
}
layer {
  name: "relu3_1"
  type: "ReLU"
  bottom: "conv3_1"
  top: "conv3_1"
}
layer {
  name: "conv3_2"
  type: "Convolution"
  bottom: "conv3_1"
  top: "conv3_2"
  convolution_param {
    num_output: 256
    pad: 1
    kernel_size: 3
  }
}
layer {
  name: "relu3_2"
  type: "ReLU"
  bottom: "conv3_2"
  top: "conv3_2"
}
layer {
  name: "conv3_3"
  type: "Convolution"
  bottom: "conv3_2"
  top: "conv3_3"
  convolution_param {
    num_output: 256
    pad: 1
    kernel_size: 3
  }
}
layer {
  name: "relu3_3"
  type: "ReLU"
  bottom: "conv3_3"
  top: "conv3_3"
}
layer {
  name: "pool3"
  type: "Pooling"
  bottom: "conv3_3"
  top: "pool3"
  pooling_param {
    pool: MAX
    kernel_size: 2
    stride: 2
  }
}
layer {
  name: "conv4_1"
  type: "Convolution"
  bottom: "pool3"
  top: "conv4_1"
  convolution_param {
    num_output: 512
    pad: 1
    kernel_size: 3
  }
}
layer {
  name: "relu4_1"
  type: "ReLU"
  bottom: "conv4_1"
  top: "conv4_1"
}
layer {
  name: "conv4_2"
  type: "Convolution"
  bottom: "conv4_1"
  top: "conv4_2"
  convolution_param {
    num_output: 512
    pad: 1
    kernel_size: 3
  }
}
layer {
  name: "relu4_2"
  type: "ReLU"
  bottom: "conv4_2"
  top: "conv4_2"
}
layer {
  name: "conv4_3"
  type: "Convolution"
  bottom: "conv4_2"
  top: "conv4_3"
  convolution_param {
    num_output: 512
    pad: 1
    kernel_size: 3
  }
}
layer {
  name: "relu4_3"
  type: "ReLU"
  bottom: "conv4_3"
  top: "conv4_3"
}
layer {
  name: "pool4"
  type: "Pooling"
  bottom: "conv4_3"
  top: "pool4"
  pooling_param {
    pool: MAX
    kernel_size: 2
    stride: 2
  }
}
layer {
  name: "conv5_1"
  type: "Convolution"
  bottom: "pool4"
  top: "conv5_1"
  convolution_param {
    num_output: 512
    pad: 1
    kernel_size: 3
  }
}
layer {
  name: "relu5_1"
  type: "ReLU"
  bottom: "conv5_1"
  top: "conv5_1"
}
layer {
  name: "conv5_2"
  type: "Convolution"
  bottom: "conv5_1"
  top: "conv5_2"
  convolution_param {
    num_output: 512
    pad: 1
    kernel_size: 3
  }
}
layer {
  name: "relu5_2"
  type: "ReLU"
  bottom: "conv5_2"
  top: "conv5_2"
}
layer {
  name: "conv5_3"
  type: "Convolution"
  bottom: "conv5_2"
  top: "conv5_3"
  convolution_param {
    num_output: 512
    pad: 1
    kernel_size: 3
  }
}
layer {
  name: "relu5_3"
  type: "ReLU"
  bottom: "conv5_3"
  top: "conv5_3"
}
layer {
  name: "rpn_conv/3x3"
  type: "Convolution"
  bottom: "conv5_3"
  top: "rpn/output"
  convolution_param {
    num_output: 512
    pad: 1
    kernel_size: 3
    stride: 1
  }
}
layer {
  name: "rpn_relu/3x3"
  type: "ReLU"
  bottom: "rpn/output"
  top: "rpn/output"
}
layer {
  name: "rpn_cls_score"
  type: "Convolution"
  bottom: "rpn/output"
  top: "rpn_cls_score"
  convolution_param {
    num_output: 18
    pad: 0
    kernel_size: 1
    stride: 1
  }
}
layer {
  name: "rpn_bbox_pred"
  type: "Convolution"
  bottom: "rpn/output"
  top: "rpn_bbox_pred"
  convolution_param {
    num_output: 36
    pad: 0
    kernel_size: 1
    stride: 1
  }
}
layer {
  name: "rpn_cls_score_reshape"
  type: "Reshape"
  bottom: "rpn_cls_score"
  top: "rpn_cls_score_reshape"
  reshape_param {
    shape {
      dim: 0
      dim: 2
      dim: -1
      dim: 0
    }
  }
}
layer {
  name: "rpn_cls_prob"
  type: "Softmax"
  bottom: "rpn_cls_score_reshape"
  top: "rpn_cls_prob"
}
layer {
  name: "rpn_cls_prob_reshape"
  type: "Reshape"
  bottom: "rpn_cls_prob"
  top: "rpn_cls_prob_reshape"
  reshape_param {
    shape {
      dim: 0
      dim: 18
      dim: -1
      dim: 0
    }
  }
}
layer {
  name: "proposal"
  type: "Python"
  bottom: "rpn_cls_prob_reshape"
  bottom: "rpn_bbox_pred"
  bottom: "im_info"
  top: "rois"
  top: "scores"
  python_param {
    module: "rpn.proposal_layer"
    layer: "ProposalLayer"
    param_str: "\'feat_stride\': 16"
  }
}
I1018 08:40:52.470971 11016 net.cpp:435] Input 0 -> data
I1018 08:40:52.470983 11016 net.cpp:435] Input 1 -> im_info
I1018 08:40:52.470990 11016 layer_factory.hpp:76] Creating layer conv1_1
I1018 08:40:52.470999 11016 net.cpp:110] Creating Layer conv1_1
I1018 08:40:52.471002 11016 net.cpp:477] conv1_1 <- data
I1018 08:40:52.471005 11016 net.cpp:433] conv1_1 -> conv1_1
I1018 08:40:52.475594 11016 net.cpp:155] Setting up conv1_1
I1018 08:40:52.475610 11016 net.cpp:163] Top shape: 1 64 224 224 (3211264)
I1018 08:40:52.475620 11016 layer_factory.hpp:76] Creating layer relu1_1
I1018 08:40:52.475625 11016 net.cpp:110] Creating Layer relu1_1
I1018 08:40:52.475627 11016 net.cpp:477] relu1_1 <- conv1_1
I1018 08:40:52.475630 11016 net.cpp:419] relu1_1 -> conv1_1 (in-place)
I1018 08:40:52.475638 11016 net.cpp:155] Setting up relu1_1
I1018 08:40:52.475641 11016 net.cpp:163] Top shape: 1 64 224 224 (3211264)
I1018 08:40:52.475642 11016 layer_factory.hpp:76] Creating layer conv1_2
I1018 08:40:52.475647 11016 net.cpp:110] Creating Layer conv1_2
I1018 08:40:52.475649 11016 net.cpp:477] conv1_2 <- conv1_1
I1018 08:40:52.475652 11016 net.cpp:433] conv1_2 -> conv1_2
I1018 08:40:52.475708 11016 net.cpp:155] Setting up conv1_2
I1018 08:40:52.475713 11016 net.cpp:163] Top shape: 1 64 224 224 (3211264)
I1018 08:40:52.475718 11016 layer_factory.hpp:76] Creating layer relu1_2
I1018 08:40:52.475721 11016 net.cpp:110] Creating Layer relu1_2
I1018 08:40:52.475723 11016 net.cpp:477] relu1_2 <- conv1_2
I1018 08:40:52.475726 11016 net.cpp:419] relu1_2 -> conv1_2 (in-place)
I1018 08:40:52.475729 11016 net.cpp:155] Setting up relu1_2
I1018 08:40:52.475731 11016 net.cpp:163] Top shape: 1 64 224 224 (3211264)
I1018 08:40:52.475733 11016 layer_factory.hpp:76] Creating layer pool1
I1018 08:40:52.475739 11016 net.cpp:110] Creating Layer pool1
I1018 08:40:52.475739 11016 net.cpp:477] pool1 <- conv1_2
I1018 08:40:52.475742 11016 net.cpp:433] pool1 -> pool1
I1018 08:40:52.475749 11016 net.cpp:155] Setting up pool1
I1018 08:40:52.475750 11016 net.cpp:163] Top shape: 1 64 112 112 (802816)
I1018 08:40:52.475752 11016 layer_factory.hpp:76] Creating layer conv2_1
I1018 08:40:52.475757 11016 net.cpp:110] Creating Layer conv2_1
I1018 08:40:52.475759 11016 net.cpp:477] conv2_1 <- pool1
I1018 08:40:52.475762 11016 net.cpp:433] conv2_1 -> conv2_1
I1018 08:40:52.476265 11016 net.cpp:155] Setting up conv2_1
I1018 08:40:52.476272 11016 net.cpp:163] Top shape: 1 128 112 112 (1605632)
I1018 08:40:52.476279 11016 layer_factory.hpp:76] Creating layer relu2_1
I1018 08:40:52.476282 11016 net.cpp:110] Creating Layer relu2_1
I1018 08:40:52.476284 11016 net.cpp:477] relu2_1 <- conv2_1
I1018 08:40:52.476287 11016 net.cpp:419] relu2_1 -> conv2_1 (in-place)
I1018 08:40:52.476291 11016 net.cpp:155] Setting up relu2_1
I1018 08:40:52.476294 11016 net.cpp:163] Top shape: 1 128 112 112 (1605632)
I1018 08:40:52.476295 11016 layer_factory.hpp:76] Creating layer conv2_2
I1018 08:40:52.476299 11016 net.cpp:110] Creating Layer conv2_2
I1018 08:40:52.476300 11016 net.cpp:477] conv2_2 <- conv2_1
I1018 08:40:52.476303 11016 net.cpp:433] conv2_2 -> conv2_2
I1018 08:40:52.476387 11016 net.cpp:155] Setting up conv2_2
I1018 08:40:52.476392 11016 net.cpp:163] Top shape: 1 128 112 112 (1605632)
I1018 08:40:52.476395 11016 layer_factory.hpp:76] Creating layer relu2_2
I1018 08:40:52.476398 11016 net.cpp:110] Creating Layer relu2_2
I1018 08:40:52.476400 11016 net.cpp:477] relu2_2 <- conv2_2
I1018 08:40:52.476403 11016 net.cpp:419] relu2_2 -> conv2_2 (in-place)
I1018 08:40:52.476407 11016 net.cpp:155] Setting up relu2_2
I1018 08:40:52.476408 11016 net.cpp:163] Top shape: 1 128 112 112 (1605632)
I1018 08:40:52.476410 11016 layer_factory.hpp:76] Creating layer pool2
I1018 08:40:52.476413 11016 net.cpp:110] Creating Layer pool2
I1018 08:40:52.476415 11016 net.cpp:477] pool2 <- conv2_2
I1018 08:40:52.476418 11016 net.cpp:433] pool2 -> pool2
I1018 08:40:52.476423 11016 net.cpp:155] Setting up pool2
I1018 08:40:52.476424 11016 net.cpp:163] Top shape: 1 128 56 56 (401408)
I1018 08:40:52.476426 11016 layer_factory.hpp:76] Creating layer conv3_1
I1018 08:40:52.476430 11016 net.cpp:110] Creating Layer conv3_1
I1018 08:40:52.476433 11016 net.cpp:477] conv3_1 <- pool2
I1018 08:40:52.476434 11016 net.cpp:433] conv3_1 -> conv3_1
I1018 08:40:52.476826 11016 net.cpp:155] Setting up conv3_1
I1018 08:40:52.476833 11016 net.cpp:163] Top shape: 1 256 56 56 (802816)
I1018 08:40:52.476838 11016 layer_factory.hpp:76] Creating layer relu3_1
I1018 08:40:52.476842 11016 net.cpp:110] Creating Layer relu3_1
I1018 08:40:52.476845 11016 net.cpp:477] relu3_1 <- conv3_1
I1018 08:40:52.476847 11016 net.cpp:419] relu3_1 -> conv3_1 (in-place)
I1018 08:40:52.476851 11016 net.cpp:155] Setting up relu3_1
I1018 08:40:52.476853 11016 net.cpp:163] Top shape: 1 256 56 56 (802816)
I1018 08:40:52.476855 11016 layer_factory.hpp:76] Creating layer conv3_2
I1018 08:40:52.476858 11016 net.cpp:110] Creating Layer conv3_2
I1018 08:40:52.476861 11016 net.cpp:477] conv3_2 <- conv3_1
I1018 08:40:52.476863 11016 net.cpp:433] conv3_2 -> conv3_2
I1018 08:40:52.477538 11016 net.cpp:155] Setting up conv3_2
I1018 08:40:52.477545 11016 net.cpp:163] Top shape: 1 256 56 56 (802816)
I1018 08:40:52.477550 11016 layer_factory.hpp:76] Creating layer relu3_2
I1018 08:40:52.477553 11016 net.cpp:110] Creating Layer relu3_2
I1018 08:40:52.477555 11016 net.cpp:477] relu3_2 <- conv3_2
I1018 08:40:52.477558 11016 net.cpp:419] relu3_2 -> conv3_2 (in-place)
I1018 08:40:52.477561 11016 net.cpp:155] Setting up relu3_2
I1018 08:40:52.477565 11016 net.cpp:163] Top shape: 1 256 56 56 (802816)
I1018 08:40:52.477566 11016 layer_factory.hpp:76] Creating layer conv3_3
I1018 08:40:52.477569 11016 net.cpp:110] Creating Layer conv3_3
I1018 08:40:52.477571 11016 net.cpp:477] conv3_3 <- conv3_2
I1018 08:40:52.477574 11016 net.cpp:433] conv3_3 -> conv3_3
I1018 08:40:52.478255 11016 net.cpp:155] Setting up conv3_3
I1018 08:40:52.478261 11016 net.cpp:163] Top shape: 1 256 56 56 (802816)
I1018 08:40:52.478266 11016 layer_factory.hpp:76] Creating layer relu3_3
I1018 08:40:52.478269 11016 net.cpp:110] Creating Layer relu3_3
I1018 08:40:52.478271 11016 net.cpp:477] relu3_3 <- conv3_3
I1018 08:40:52.478274 11016 net.cpp:419] relu3_3 -> conv3_3 (in-place)
I1018 08:40:52.478277 11016 net.cpp:155] Setting up relu3_3
I1018 08:40:52.478279 11016 net.cpp:163] Top shape: 1 256 56 56 (802816)
I1018 08:40:52.478281 11016 layer_factory.hpp:76] Creating layer pool3
I1018 08:40:52.478287 11016 net.cpp:110] Creating Layer pool3
I1018 08:40:52.478289 11016 net.cpp:477] pool3 <- conv3_3
I1018 08:40:52.478292 11016 net.cpp:433] pool3 -> pool3
I1018 08:40:52.478296 11016 net.cpp:155] Setting up pool3
I1018 08:40:52.478299 11016 net.cpp:163] Top shape: 1 256 28 28 (200704)
I1018 08:40:52.478302 11016 layer_factory.hpp:76] Creating layer conv4_1
I1018 08:40:52.478304 11016 net.cpp:110] Creating Layer conv4_1
I1018 08:40:52.478305 11016 net.cpp:477] conv4_1 <- pool3
I1018 08:40:52.478308 11016 net.cpp:433] conv4_1 -> conv4_1
I1018 08:40:52.479915 11016 net.cpp:155] Setting up conv4_1
I1018 08:40:52.479933 11016 net.cpp:163] Top shape: 1 512 28 28 (401408)
I1018 08:40:52.479938 11016 layer_factory.hpp:76] Creating layer relu4_1
I1018 08:40:52.479943 11016 net.cpp:110] Creating Layer relu4_1
I1018 08:40:52.479946 11016 net.cpp:477] relu4_1 <- conv4_1
I1018 08:40:52.479949 11016 net.cpp:419] relu4_1 -> conv4_1 (in-place)
I1018 08:40:52.479954 11016 net.cpp:155] Setting up relu4_1
I1018 08:40:52.479956 11016 net.cpp:163] Top shape: 1 512 28 28 (401408)
I1018 08:40:52.479959 11016 layer_factory.hpp:76] Creating layer conv4_2
I1018 08:40:52.479964 11016 net.cpp:110] Creating Layer conv4_2
I1018 08:40:52.479965 11016 net.cpp:477] conv4_2 <- conv4_1
I1018 08:40:52.479969 11016 net.cpp:433] conv4_2 -> conv4_2
I1018 08:40:52.482990 11016 net.cpp:155] Setting up conv4_2
I1018 08:40:52.483011 11016 net.cpp:163] Top shape: 1 512 28 28 (401408)
I1018 08:40:52.483022 11016 layer_factory.hpp:76] Creating layer relu4_2
I1018 08:40:52.483029 11016 net.cpp:110] Creating Layer relu4_2
I1018 08:40:52.483032 11016 net.cpp:477] relu4_2 <- conv4_2
I1018 08:40:52.483036 11016 net.cpp:419] relu4_2 -> conv4_2 (in-place)
I1018 08:40:52.483042 11016 net.cpp:155] Setting up relu4_2
I1018 08:40:52.483044 11016 net.cpp:163] Top shape: 1 512 28 28 (401408)
I1018 08:40:52.483047 11016 layer_factory.hpp:76] Creating layer conv4_3
I1018 08:40:52.483050 11016 net.cpp:110] Creating Layer conv4_3
I1018 08:40:52.483052 11016 net.cpp:477] conv4_3 <- conv4_2
I1018 08:40:52.483055 11016 net.cpp:433] conv4_3 -> conv4_3
I1018 08:40:52.486069 11016 net.cpp:155] Setting up conv4_3
I1018 08:40:52.486090 11016 net.cpp:163] Top shape: 1 512 28 28 (401408)
I1018 08:40:52.486098 11016 layer_factory.hpp:76] Creating layer relu4_3
I1018 08:40:52.486104 11016 net.cpp:110] Creating Layer relu4_3
I1018 08:40:52.486107 11016 net.cpp:477] relu4_3 <- conv4_3
I1018 08:40:52.486110 11016 net.cpp:419] relu4_3 -> conv4_3 (in-place)
I1018 08:40:52.486115 11016 net.cpp:155] Setting up relu4_3
I1018 08:40:52.486119 11016 net.cpp:163] Top shape: 1 512 28 28 (401408)
I1018 08:40:52.486120 11016 layer_factory.hpp:76] Creating layer pool4
I1018 08:40:52.486124 11016 net.cpp:110] Creating Layer pool4
I1018 08:40:52.486125 11016 net.cpp:477] pool4 <- conv4_3
I1018 08:40:52.486129 11016 net.cpp:433] pool4 -> pool4
I1018 08:40:52.486135 11016 net.cpp:155] Setting up pool4
I1018 08:40:52.486137 11016 net.cpp:163] Top shape: 1 512 14 14 (100352)
I1018 08:40:52.486140 11016 layer_factory.hpp:76] Creating layer conv5_1
I1018 08:40:52.486143 11016 net.cpp:110] Creating Layer conv5_1
I1018 08:40:52.486145 11016 net.cpp:477] conv5_1 <- pool4
I1018 08:40:52.486150 11016 net.cpp:433] conv5_1 -> conv5_1
I1018 08:40:52.489246 11016 net.cpp:155] Setting up conv5_1
I1018 08:40:52.489267 11016 net.cpp:163] Top shape: 1 512 14 14 (100352)
I1018 08:40:52.489274 11016 layer_factory.hpp:76] Creating layer relu5_1
I1018 08:40:52.489281 11016 net.cpp:110] Creating Layer relu5_1
I1018 08:40:52.489284 11016 net.cpp:477] relu5_1 <- conv5_1
I1018 08:40:52.489287 11016 net.cpp:419] relu5_1 -> conv5_1 (in-place)
I1018 08:40:52.489292 11016 net.cpp:155] Setting up relu5_1
I1018 08:40:52.489295 11016 net.cpp:163] Top shape: 1 512 14 14 (100352)
I1018 08:40:52.489297 11016 layer_factory.hpp:76] Creating layer conv5_2
I1018 08:40:52.489301 11016 net.cpp:110] Creating Layer conv5_2
I1018 08:40:52.489303 11016 net.cpp:477] conv5_2 <- conv5_1
I1018 08:40:52.489306 11016 net.cpp:433] conv5_2 -> conv5_2
I1018 08:40:52.492336 11016 net.cpp:155] Setting up conv5_2
I1018 08:40:52.492359 11016 net.cpp:163] Top shape: 1 512 14 14 (100352)
I1018 08:40:52.492367 11016 layer_factory.hpp:76] Creating layer relu5_2
I1018 08:40:52.492372 11016 net.cpp:110] Creating Layer relu5_2
I1018 08:40:52.492375 11016 net.cpp:477] relu5_2 <- conv5_2
I1018 08:40:52.492379 11016 net.cpp:419] relu5_2 -> conv5_2 (in-place)
I1018 08:40:52.492385 11016 net.cpp:155] Setting up relu5_2
I1018 08:40:52.492388 11016 net.cpp:163] Top shape: 1 512 14 14 (100352)
I1018 08:40:52.492389 11016 layer_factory.hpp:76] Creating layer conv5_3
I1018 08:40:52.492393 11016 net.cpp:110] Creating Layer conv5_3
I1018 08:40:52.492395 11016 net.cpp:477] conv5_3 <- conv5_2
I1018 08:40:52.492399 11016 net.cpp:433] conv5_3 -> conv5_3
I1018 08:40:52.495596 11016 net.cpp:155] Setting up conv5_3
I1018 08:40:52.495621 11016 net.cpp:163] Top shape: 1 512 14 14 (100352)
I1018 08:40:52.495628 11016 layer_factory.hpp:76] Creating layer relu5_3
I1018 08:40:52.495635 11016 net.cpp:110] Creating Layer relu5_3
I1018 08:40:52.495638 11016 net.cpp:477] relu5_3 <- conv5_3
I1018 08:40:52.495642 11016 net.cpp:419] relu5_3 -> conv5_3 (in-place)
I1018 08:40:52.495647 11016 net.cpp:155] Setting up relu5_3
I1018 08:40:52.495651 11016 net.cpp:163] Top shape: 1 512 14 14 (100352)
I1018 08:40:52.495652 11016 layer_factory.hpp:76] Creating layer rpn_conv/3x3
I1018 08:40:52.495657 11016 net.cpp:110] Creating Layer rpn_conv/3x3
I1018 08:40:52.495659 11016 net.cpp:477] rpn_conv/3x3 <- conv5_3
I1018 08:40:52.495662 11016 net.cpp:433] rpn_conv/3x3 -> rpn/output
I1018 08:40:52.498674 11016 net.cpp:155] Setting up rpn_conv/3x3
I1018 08:40:52.498697 11016 net.cpp:163] Top shape: 1 512 14 14 (100352)
I1018 08:40:52.498704 11016 layer_factory.hpp:76] Creating layer rpn_relu/3x3
I1018 08:40:52.498711 11016 net.cpp:110] Creating Layer rpn_relu/3x3
I1018 08:40:52.498714 11016 net.cpp:477] rpn_relu/3x3 <- rpn/output
I1018 08:40:52.498718 11016 net.cpp:419] rpn_relu/3x3 -> rpn/output (in-place)
I1018 08:40:52.498724 11016 net.cpp:155] Setting up rpn_relu/3x3
I1018 08:40:52.498726 11016 net.cpp:163] Top shape: 1 512 14 14 (100352)
I1018 08:40:52.498728 11016 layer_factory.hpp:76] Creating layer rpn/output_rpn_relu/3x3_0_split
I1018 08:40:52.498741 11016 net.cpp:110] Creating Layer rpn/output_rpn_relu/3x3_0_split
I1018 08:40:52.498744 11016 net.cpp:477] rpn/output_rpn_relu/3x3_0_split <- rpn/output
I1018 08:40:52.498745 11016 net.cpp:433] rpn/output_rpn_relu/3x3_0_split -> rpn/output_rpn_relu/3x3_0_split_0
I1018 08:40:52.498749 11016 net.cpp:433] rpn/output_rpn_relu/3x3_0_split -> rpn/output_rpn_relu/3x3_0_split_1
I1018 08:40:52.498764 11016 net.cpp:155] Setting up rpn/output_rpn_relu/3x3_0_split
I1018 08:40:52.498766 11016 net.cpp:163] Top shape: 1 512 14 14 (100352)
I1018 08:40:52.498769 11016 net.cpp:163] Top shape: 1 512 14 14 (100352)
I1018 08:40:52.498771 11016 layer_factory.hpp:76] Creating layer rpn_cls_score
I1018 08:40:52.498775 11016 net.cpp:110] Creating Layer rpn_cls_score
I1018 08:40:52.498777 11016 net.cpp:477] rpn_cls_score <- rpn/output_rpn_relu/3x3_0_split_0
I1018 08:40:52.498781 11016 net.cpp:433] rpn_cls_score -> rpn_cls_score
I1018 08:40:52.498832 11016 net.cpp:155] Setting up rpn_cls_score
I1018 08:40:52.498836 11016 net.cpp:163] Top shape: 1 18 14 14 (3528)
I1018 08:40:52.498839 11016 layer_factory.hpp:76] Creating layer rpn_bbox_pred
I1018 08:40:52.498842 11016 net.cpp:110] Creating Layer rpn_bbox_pred
I1018 08:40:52.498845 11016 net.cpp:477] rpn_bbox_pred <- rpn/output_rpn_relu/3x3_0_split_1
I1018 08:40:52.498847 11016 net.cpp:433] rpn_bbox_pred -> rpn_bbox_pred
I1018 08:40:52.498898 11016 net.cpp:155] Setting up rpn_bbox_pred
I1018 08:40:52.498913 11016 net.cpp:163] Top shape: 1 36 14 14 (7056)
I1018 08:40:52.498916 11016 layer_factory.hpp:76] Creating layer rpn_cls_score_reshape
I1018 08:40:52.498921 11016 net.cpp:110] Creating Layer rpn_cls_score_reshape
I1018 08:40:52.498924 11016 net.cpp:477] rpn_cls_score_reshape <- rpn_cls_score
I1018 08:40:52.498926 11016 net.cpp:433] rpn_cls_score_reshape -> rpn_cls_score_reshape
I1018 08:40:52.498932 11016 net.cpp:155] Setting up rpn_cls_score_reshape
I1018 08:40:52.498935 11016 net.cpp:163] Top shape: 1 2 126 14 (3528)
I1018 08:40:52.498937 11016 layer_factory.hpp:76] Creating layer rpn_cls_prob
I1018 08:40:52.498941 11016 net.cpp:110] Creating Layer rpn_cls_prob
I1018 08:40:52.498944 11016 net.cpp:477] rpn_cls_prob <- rpn_cls_score_reshape
I1018 08:40:52.498946 11016 net.cpp:433] rpn_cls_prob -> rpn_cls_prob
I1018 08:40:52.498961 11016 net.cpp:155] Setting up rpn_cls_prob
I1018 08:40:52.498965 11016 net.cpp:163] Top shape: 1 2 126 14 (3528)
I1018 08:40:52.498966 11016 layer_factory.hpp:76] Creating layer rpn_cls_prob_reshape
I1018 08:40:52.498970 11016 net.cpp:110] Creating Layer rpn_cls_prob_reshape
I1018 08:40:52.498971 11016 net.cpp:477] rpn_cls_prob_reshape <- rpn_cls_prob
I1018 08:40:52.498975 11016 net.cpp:433] rpn_cls_prob_reshape -> rpn_cls_prob_reshape
I1018 08:40:52.498978 11016 net.cpp:155] Setting up rpn_cls_prob_reshape
I1018 08:40:52.498981 11016 net.cpp:163] Top shape: 1 18 14 14 (3528)
I1018 08:40:52.498983 11016 layer_factory.hpp:76] Creating layer proposal
I1018 08:40:52.499824 11016 net.cpp:110] Creating Layer proposal
I1018 08:40:52.499831 11016 net.cpp:477] proposal <- rpn_cls_prob_reshape
I1018 08:40:52.499835 11016 net.cpp:477] proposal <- rpn_bbox_pred
I1018 08:40:52.499837 11016 net.cpp:477] proposal <- im_info
I1018 08:40:52.499841 11016 net.cpp:433] proposal -> rois
I1018 08:40:52.499845 11016 net.cpp:433] proposal -> scores
I1018 08:40:52.500407 11016 net.cpp:155] Setting up proposal
I1018 08:40:52.500416 11016 net.cpp:163] Top shape: 1 5 (5)
I1018 08:40:52.500418 11016 net.cpp:163] Top shape: 1 1 1 1 (1)
I1018 08:40:52.500421 11016 net.cpp:240] proposal does not need backward computation.
I1018 08:40:52.500423 11016 net.cpp:240] rpn_cls_prob_reshape does not need backward computation.
I1018 08:40:52.500425 11016 net.cpp:240] rpn_cls_prob does not need backward computation.
I1018 08:40:52.500427 11016 net.cpp:240] rpn_cls_score_reshape does not need backward computation.
I1018 08:40:52.500429 11016 net.cpp:240] rpn_bbox_pred does not need backward computation.
…
I1018 08:51:41.628619 11069 solver.cpp:86] Creating training net from train_net file: /home/bsl/py-faster-rcnn-master/models/VGG16/faster_rcnn_alt_opt/stage2_fast_rcnn_ohem_train.pt
I1018 08:51:41.629429 11069 net.cpp:50] Initializing net from parameters: 
name: "VGG_ILSVRC_16_layers"
state {
  phase: TRAIN
}
layer {
  name: "data"
  type: "Python"
  top: "data"
  top: "rois"
  top: "labels"
  top: "bbox_targets"
  top: "bbox_inside_weights"
  top: "bbox_outside_weights"
  python_param {
    module: "roi_data_layer.layer"
    layer: "RoIDataLayer"
    param_str: "\'num_classes\': 21"
  }
}
layer {
  name: "conv1_1"
  type: "Convolution"
  bottom: "data"
  top: "conv1_1"
  param {
    lr_mult: 0
    decay_mult: 0
  }
  param {
    lr_mult: 0
    decay_mult: 0
  }
  convolution_param {
    num_output: 64
    pad: 1
    kernel_size: 3
  }
}
layer {
  name: "relu1_1"
  type: "ReLU"
  bottom: "conv1_1"
  top: "conv1_1"
}
layer {
  name: "conv1_2"
  type: "Convolution"
  bottom: "conv1_1"
  top: "conv1_2"
  param {
    lr_mult: 0
    decay_mult: 0
  }
  param {
    lr_mult: 0
    decay_mult: 0
  }
  convolution_param {
    num_output: 64
    pad: 1
    kernel_size: 3
  }
}
layer {
  name: "relu1_2"
  type: "ReLU"
  bottom: "conv1_2"
  top: "conv1_2"
}
layer {
  name: "pool1"
  type: "Pooling"
  bottom: "conv1_2"
  top: "pool1"
  pooling_param {
    pool: MAX
    kernel_size: 2
    stride: 2
  }
}
layer {
  name: "conv2_1"
  type: "Convolution"
  bottom: "pool1"
  top: "conv2_1"
  param {
    lr_mult: 0
    decay_mult: 0
  }
  param {
    lr_mult: 0
    decay_mult: 0
  }
  convolution_param {
    num_output: 128
    pad: 1
    kernel_size: 3
  }
}
layer {
  name: "relu2_1"
  type: "ReLU"
  bottom: "conv2_1"
  top: "conv2_1"
}
layer {
  name: "conv2_2"
  type: "Convolution"
  bottom: "conv2_1"
  top: "conv2_2"
  param {
    lr_mult: 0
    decay_mult: 0
  }
  param {
    lr_mult: 0
    decay_mult: 0
  }
  convolution_param {
    num_output: 128
    pad: 1
    kernel_size: 3
  }
}
layer {
  name: "relu2_2"
  type: "ReLU"
  bottom: "conv2_2"
  top: "conv2_2"
}
layer {
  name: "pool2"
  type: "Pooling"
  bottom: "conv2_2"
  top: "pool2"
  pooling_param {
    pool: MAX
    kernel_size: 2
    stride: 2
  }
}
layer {
  name: "conv3_1"
  type: "Convolution"
  bottom: "pool2"
  top: "conv3_1"
  param {
    lr_mult: 0
    decay_mult: 0
  }
  param {
    lr_mult: 0
    decay_mult: 0
  }
  convolution_param {
    num_output: 256
    pad: 1
    kernel_size: 3
  }
}
layer {
  name: "relu3_1"
  type: "ReLU"
  bottom: "conv3_1"
  top: "conv3_1"
}
layer {
  name: "conv3_2"
  type: "Convolution"
  bottom: "conv3_1"
  top: "conv3_2"
  param {
    lr_mult: 0
    decay_mult: 0
  }
  param {
    lr_mult: 0
    decay_mult: 0
  }
  convolution_param {
    num_output: 256
    pad: 1
    kernel_size: 3
  }
}
layer {
  name: "relu3_2"
  type: "ReLU"
  bottom: "conv3_2"
  top: "conv3_2"
}
layer {
  name: "conv3_3"
  type: "Convolution"
  bottom: "conv3_2"
  top: "conv3_3"
  param {
    lr_mult: 0
    decay_mult: 0
  }
  param {
    lr_mult: 0
    decay_mult: 0
  }
  convolution_param {
    num_output: 256
    pad: 1
    kernel_size: 3
  }
}
layer {
  name: "relu3_3"
  type: "ReLU"
  bottom: "conv3_3"
  top: "conv3_3"
}
layer {
  name: "pool3"
  type: "Pooling"
  bottom: "conv3_3"
  top: "pool3"
  pooling_param {
    pool: MAX
    kernel_size: 2
    stride: 2
  }
}
layer {
  name: "conv4_1"
  type: "Convolution"
  bottom: "pool3"
  top: "conv4_1"
  param {
    lr_mult: 0
    decay_mult: 0
  }
  param {
    lr_mult: 0
    decay_mult: 0
  }
  convolution_param {
    num_output: 512
    pad: 1
    kernel_size: 3
  }
}
layer {
  name: "relu4_1"
  type: "ReLU"
  bottom: "conv4_1"
  top: "conv4_1"
}
layer {
  name: "conv4_2"
  type: "Convolution"
  bottom: "conv4_1"
  top: "conv4_2"
  param {
    lr_mult: 0
    decay_mult: 0
  }
  param {
    lr_mult: 0
    decay_mult: 0
  }
  convolution_param {
    num_output: 512
    pad: 1
    kernel_size: 3
  }
}
layer {
  name: "relu4_2"
  type: "ReLU"
  bottom: "conv4_2"
  top: "conv4_2"
}
layer {
  name: "conv4_3"
  type: "Convolution"
  bottom: "conv4_2"
  top: "conv4_3"
  param {
    lr_mult: 0
    decay_mult: 0
  }
  param {
    lr_mult: 0
    decay_mult: 0
  }
  convolution_param {
    num_output: 512
    pad: 1
    kernel_size: 3
  }
}
layer {
  name: "relu4_3"
  type: "ReLU"
  bottom: "conv4_3"
  top: "conv4_3"
}
layer {
  name: "pool4"
  type: "Pooling"
  bottom: "conv4_3"
  top: "pool4"
  pooling_param {
    pool: MAX
    kernel_size: 2
    stride: 2
  }
}
layer {
  name: "conv5_1"
  type: "Convolution"
  bottom: "pool4"
  top: "conv5_1"
  param {
    lr_mult: 0
    decay_mult: 0
  }
  param {
    lr_mult: 0
    decay_mult: 0
  }
  convolution_param {
    num_output: 512
    pad: 1
    kernel_size: 3
  }
}
layer {
  name: "relu5_1"
  type: "ReLU"
  bottom: "conv5_1"
  top: "conv5_1"
}
layer {
  name: "conv5_2"
  type: "Convolution"
  bottom: "conv5_1"
  top: "conv5_2"
  param {
    lr_mult: 0
    decay_mult: 0
  }
  param {
    lr_mult: 0
    decay_mult: 0
  }
  convolution_param {
    num_output: 512
    pad: 1
    kernel_size: 3
  }
}
layer {
  name: "relu5_2"
  type: "ReLU"
  bottom: "conv5_2"
  top: "conv5_2"
}
layer {
  name: "conv5_3"
  type: "Convolution"
  bottom: "conv5_2"
  top: "conv5_3"
  param {
    lr_mult: 0
    decay_mult: 0
  }
  param {
    lr_mult: 0
    decay_mult: 0
  }
  convolution_param {
    num_output: 512
    pad: 1
    kernel_size: 3
  }
}
layer {
  name: "relu5_3"
  type: "ReLU"
  bottom: "conv5_3"
  top: "conv5_3"
}
layer {
  name: "roi_pool5_readonly"
  type: "ROIPooling"
  bottom: "conv5_3"
  bottom: "rois"
  top: "pool5_readonly"
  propagate_down: false
  propagate_down: false
  roi_pooling_param {
    pooled_h: 7
    pooled_w: 7
    spatial_scale: 0.0625
  }
}
layer {
  name: "fc6_readonly"
  type: "InnerProduct"
  bottom: "pool5_readonly"
  top: "fc6_readonly"
  param {
    name: "fc6_w"
  }
  param {
    name: "fc6_b"
  }
  propagate_down: false
  inner_product_param {
    num_output: 4096
  }
}
layer {
  name: "relu6_readonly"
  type: "ReLU"
  bottom: "fc6_readonly"
  top: "fc6_readonly"
  propagate_down: false
}
layer {
  name: "drop6_readonly"
  type: "Dropout"
  bottom: "fc6_readonly"
  top: "fc6_readonly"
  propagate_down: false
  dropout_param {
    dropout_ratio: 0.5
  }
}
layer {
  name: "fc7_readonly"
  type: "InnerProduct"
  bottom: "fc6_readonly"
  top: "fc7_readonly"
  param {
    name: "fc7_w"
  }
  param {
    name: "fc7_b"
  }
  propagate_down: false
  inner_product_param {
    num_output: 4096
  }
}
layer {
  name: "relu7_readonly"
  type: "ReLU"
  bottom: "fc7_readonly"
  top: "fc7_readonly"
  propagate_down: false
}
layer {
  name: "drop7_readonly"
  type: "Dropout"
  bottom: "fc7_readonly"
  top: "fc7_readonly"
  propagate_down: false
  dropout_param {
    dropout_ratio: 0.5
  }
}
layer {
  name: "cls_score_readonly"
  type: "InnerProduct"
  bottom: "fc7_readonly"
  top: "cls_score_readonly"
  param {
    name: "cls_score_w"
  }
  param {
    name: "cls_score_b"
  }
  propagate_down: false
  inner_product_param {
    num_output: 21
    weight_filler {
      type: "gaussian"
      std: 0.01
    }
    bias_filler {
      type: "constant"
      value: 0
    }
  }
}
layer {
  name: "bbox_pred_readonly"
  type: "InnerProduct"
  bottom: "fc7_readonly"
  top: "bbox_pred_readonly"
  param {
    name: "bbox_pred_w"
  }
  param {
    name: "bbox_pred_b"
  }
  propagate_down: false
  inner_product_param {
    num_output: 84
    weight_filler {
      type: "gaussian"
      std: 0.001
    }
    bias_filler {
      type: "constant"
      value: 0
    }
  }
}
layer {
  name: "cls_prob_readonly"
  type: "Softmax"
  bottom: "cls_score_readonly"
  top: "cls_prob_readonly"
  propagate_down: false
}
layer {
  name: "hard_roi_mining"
  type: "Python"
  bottom: "cls_prob_readonly"
  bottom: "bbox_pred_readonly"
  bottom: "rois"
  bottom: "labels"
  bottom: "bbox_targets"
  bottom: "bbox_inside_weights"
  bottom: "bbox_outside_weights"
  top: "rois_hard"
  top: "labels_hard"
  top: "bbox_targets_hard"
  top: "bbox_inside_weights_hard"
  top: "bbox_outside_weights_hard"
  propagate_down: false
  propagate_down: false
  propagate_down: false
  propagate_down: false
  propagate_down: false
  propagate_down: false
  propagate_down: false
  python_param {
    module: "roi_data_layer.layer"
    layer: "OHEMDataLayer"
    param_str: "\'num_classes\': 21"
  }
}
layer {
  name: "roi_pool5"
  type: "ROIPooling"
  bottom: "conv5_3"
  bottom: "rois_hard"
  top: "pool5"
  propagate_down: true
  propagate_down: false
  roi_pooling_param {
    pooled_h: 7
    pooled_w: 7
    spatial_scale: 0.0625
  }
}
layer {
  name: "fc6"
  type: "InnerProduct"
  bottom: "pool5"
  top: "fc6"
  param {
    name: "fc6_w"
    lr_mult: 1
  }
  param {
    name: "fc6_b"
    lr_mult: 2
  }
  inner_product_param {
    num_output: 4096
  }
}
layer {
  name: "relu6"
  type: "ReLU"
  bottom: "fc6"
  top: "fc6"
}
layer {
  name: "drop6"
  type: "Dropout"
  bottom: "fc6"
  top: "fc6"
  dropout_param {
    dropout_ratio: 0.5
  }
}
layer {
  name: "fc7"
  type: "InnerProduct"
  bottom: "fc6"
  top: "fc7"
  param {
    name: "fc7_w"
    lr_mult: 1
  }
  param {
    name: "fc7_b"
    lr_mult: 2
  }
  inner_product_param {
    num_output: 4096
  }
}
layer {
  name: "relu7"
  type: "ReLU"
  bottom: "fc7"
  top: "fc7"
}
layer {
  name: "drop7"
  type: "Dropout"
  bottom: "fc7"
  top: "fc7"
  dropout_param {
    dropout_ratio: 0.5
  }
}
layer {
  name: "cls_score"
  type: "InnerProduct"
  bottom: "fc7"
  top: "cls_score"
  param {
    name: "cls_score_w"
    lr_mult: 1
  }
  param {
    name: "cls_score_b"
    lr_mult: 2
  }
  inner_product_param {
    num_output: 21
    weight_filler {
      type: "gaussian"
      std: 0.01
    }
    bias_filler {
      type: "constant"
      value: 0
    }
  }
}
layer {
  name: "bbox_pred"
  type: "InnerProduct"
  bottom: "fc7"
  top: "bbox_pred"
  param {
    name: "bbox_pred_w"
    lr_mult: 1
  }
  param {
    name: "bbox_pred_b"
    lr_mult: 2
  }
  inner_product_param {
    num_output: 84
    weight_filler {
      type: "gaussian"
      std: 0.001
    }
    bias_filler {
      type: "constant"
      value: 0
    }
  }
}
layer {
  name: "loss_cls"
  type: "SoftmaxWithLoss"
  bottom: "cls_score"
  bottom: "labels_hard"
  top: "loss_cls"
  loss_weight: 1
  propagate_down: true
  propagate_down: false
}
layer {
  name: "loss_bbox"
  type: "SmoothL1Loss"
  bottom: "bbox_pred"
  bottom: "bbox_targets_hard"
  bottom: "bbox_inside_weights_hard"
  bottom: "bbox_outside_weights_hard"
  top: "loss_bbox"
  loss_weight: 1
  propagate_down: true
  propagate_down: false
  propagate_down: false
  propagate_down: false
}
layer {
  name: "rpn_conv/3x3"
  type: "Convolution"
  bottom: "conv5_3"
  top: "rpn/output"
  param {
    lr_mult: 0
    decay_mult: 0
  }
  param {
    lr_mult: 0
    decay_mult: 0
  }
  convolution_param {
    num_output: 512
    pad: 1
    kernel_size: 3
    stride: 1
    weight_filler {
      type: "gaussian"
      std: 0.01
    }
    bias_filler {
      type: "constant"
      value: 0
    }
  }
}
layer {
  name: "rpn_relu/3x3"
  type: "ReLU"
  bottom: "rpn/output"
  top: "rpn/output"
}
layer {
  name: "rpn_cls_score"
  type: "Convolution"
  bottom: "rpn/output"
  top: "rpn_cls_score"
  param {
    lr_mult: 0
    decay_mult: 0
  }
  param {
    lr_mult: 0
    decay_mult: 0
  }
  convolution_param {
    num_output: 18
    pad: 0
    kernel_size: 1
    stride: 1
    weight_filler {
      type: "gaussian"
      std: 0.01
    }
    bias_filler {
      type: "constant"
      value: 0
    }
  }
}
layer {
  name: "rpn_bbox_pred"
  type: "Convolution"
  bottom: "rpn/output"
  top: "rpn_bbox_pred"
  param {
    lr_mult: 0
    decay_mult: 0
  }
  param {
    lr_mult: 0
    decay_mult: 0
  }
  convolution_param {
    num_output: 36
    pad: 0
    kernel_size: 1
    stride: 1
    weight_filler {
      type: "gaussian"
      std: 0.01
    }
    bias_filler {
      type: "constant"
      value: 0
    }
  }
}
layer {
  name: "silence_rpn_cls_score"
  type: "Silence"
  bottom: "rpn_cls_score"
}
layer {
  name: "silence_rpn_bbox_pred"
  type: "Silence"
  bottom: "rpn_bbox_pred"
}
I1018 08:51:41.629582 11069 layer_factory.hpp:76] Creating layer data
I1018 08:51:41.629981 11069 net.cpp:110] Creating Layer data
I1018 08:51:41.629987 11069 net.cpp:433] data -> data
I1018 08:51:41.629995 11069 net.cpp:433] data -> rois
I1018 08:51:41.629999 11069 net.cpp:433] data -> labels
I1018 08:51:41.630003 11069 net.cpp:433] data -> bbox_targets
I1018 08:51:41.630007 11069 net.cpp:433] data -> bbox_inside_weights
I1018 08:51:41.630010 11069 net.cpp:433] data -> bbox_outside_weights
I1018 08:51:41.630394 11069 net.cpp:155] Setting up data
I1018 08:51:41.630401 11069 net.cpp:163] Top shape: 1 3 600 1000 (1800000)
I1018 08:51:41.630404 11069 net.cpp:163] Top shape: 1 5 (5)
I1018 08:51:41.630406 11069 net.cpp:163] Top shape: 1 (1)
I1018 08:51:41.630409 11069 net.cpp:163] Top shape: 1 84 (84)
I1018 08:51:41.630411 11069 net.cpp:163] Top shape: 1 84 (84)
I1018 08:51:41.630414 11069 net.cpp:163] Top shape: 1 84 (84)
I1018 08:51:41.630415 11069 layer_factory.hpp:76] Creating layer rois_data_1_split
I1018 08:51:41.630422 11069 net.cpp:110] Creating Layer rois_data_1_split
I1018 08:51:41.630425 11069 net.cpp:477] rois_data_1_split <- rois
I1018 08:51:41.630429 11069 net.cpp:433] rois_data_1_split -> rois_data_1_split_0
I1018 08:51:41.630432 11069 net.cpp:433] rois_data_1_split -> rois_data_1_split_1
I1018 08:51:41.630439 11069 net.cpp:155] Setting up rois_data_1_split
I1018 08:51:41.630440 11069 net.cpp:163] Top shape: 1 5 (5)
I1018 08:51:41.630442 11069 net.cpp:163] Top shape: 1 5 (5)
I1018 08:51:41.630445 11069 layer_factory.hpp:76] Creating layer conv1_1
I1018 08:51:41.630450 11069 net.cpp:110] Creating Layer conv1_1
I1018 08:51:41.630451 11069 net.cpp:477] conv1_1 <- data
I1018 08:51:41.630455 11069 net.cpp:433] conv1_1 -> conv1_1
RoiDataLayer: name_to_top: {'bbox_inside_weights': 4, 'labels': 2, 'rois': 1, 'bbox_targets': 3, 'bbox_outside_weights': 5, 'data': 0}
I1018 08:51:41.635145 11069 net.cpp:155] Setting up conv1_1
I1018 08:51:41.635161 11069 net.cpp:163] Top shape: 1 64 600 1000 (38400000)
I1018 08:51:41.635170 11069 layer_factory.hpp:76] Creating layer relu1_1
I1018 08:51:41.635177 11069 net.cpp:110] Creating Layer relu1_1
I1018 08:51:41.635180 11069 net.cpp:477] relu1_1 <- conv1_1
I1018 08:51:41.635185 11069 net.cpp:419] relu1_1 -> conv1_1 (in-place)
I1018 08:51:41.635191 11069 net.cpp:155] Setting up relu1_1
I1018 08:51:41.635195 11069 net.cpp:163] Top shape: 1 64 600 1000 (38400000)
I1018 08:51:41.635196 11069 layer_factory.hpp:76] Creating layer conv1_2
I1018 08:51:41.635201 11069 net.cpp:110] Creating Layer conv1_2
I1018 08:51:41.635203 11069 net.cpp:477] conv1_2 <- conv1_1
I1018 08:51:41.635207 11069 net.cpp:433] conv1_2 -> conv1_2
I1018 08:51:41.636155 11069 net.cpp:155] Setting up conv1_2
I1018 08:51:41.636163 11069 net.cpp:163] Top shape: 1 64 600 1000 (38400000)
I1018 08:51:41.636168 11069 layer_factory.hpp:76] Creating layer relu1_2
I1018 08:51:41.636174 11069 net.cpp:110] Creating Layer relu1_2
I1018 08:51:41.636176 11069 net.cpp:477] relu1_2 <- conv1_2
I1018 08:51:41.636179 11069 net.cpp:419] relu1_2 -> conv1_2 (in-place)
I1018 08:51:41.636183 11069 net.cpp:155] Setting up relu1_2
I1018 08:51:41.636186 11069 net.cpp:163] Top shape: 1 64 600 1000 (38400000)
I1018 08:51:41.636188 11069 layer_factory.hpp:76] Creating layer pool1
I1018 08:51:41.636193 11069 net.cpp:110] Creating Layer pool1
I1018 08:51:41.636194 11069 net.cpp:477] pool1 <- conv1_2
I1018 08:51:41.636198 11069 net.cpp:433] pool1 -> pool1
I1018 08:51:41.636203 11069 net.cpp:155] Setting up pool1
I1018 08:51:41.636205 11069 net.cpp:163] Top shape: 1 64 300 500 (9600000)
I1018 08:51:41.636207 11069 layer_factory.hpp:76] Creating layer conv2_1
I1018 08:51:41.636211 11069 net.cpp:110] Creating Layer conv2_1
I1018 08:51:41.636214 11069 net.cpp:477] conv2_1 <- pool1
I1018 08:51:41.636216 11069 net.cpp:433] conv2_1 -> conv2_1
I1018 08:51:41.636554 11069 net.cpp:155] Setting up conv2_1
I1018 08:51:41.636561 11069 net.cpp:163] Top shape: 1 128 300 500 (19200000)
I1018 08:51:41.636566 11069 layer_factory.hpp:76] Creating layer relu2_1
I1018 08:51:41.636572 11069 net.cpp:110] Creating Layer relu2_1
I1018 08:51:41.636574 11069 net.cpp:477] relu2_1 <- conv2_1
I1018 08:51:41.636577 11069 net.cpp:419] relu2_1 -> conv2_1 (in-place)
I1018 08:51:41.636581 11069 net.cpp:155] Setting up relu2_1
I1018 08:51:41.636584 11069 net.cpp:163] Top shape: 1 128 300 500 (19200000)
I1018 08:51:41.636585 11069 layer_factory.hpp:76] Creating layer conv2_2
I1018 08:51:41.636590 11069 net.cpp:110] Creating Layer conv2_2
I1018 08:51:41.636591 11069 net.cpp:477] conv2_2 <- conv2_1
I1018 08:51:41.636595 11069 net.cpp:433] conv2_2 -> conv2_2
I1018 08:51:41.637188 11069 net.cpp:155] Setting up conv2_2
I1018 08:51:41.637195 11069 net.cpp:163] Top shape: 1 128 300 500 (19200000)
I1018 08:51:41.637199 11069 layer_factory.hpp:76] Creating layer relu2_2
I1018 08:51:41.637204 11069 net.cpp:110] Creating Layer relu2_2
I1018 08:51:41.637207 11069 net.cpp:477] relu2_2 <- conv2_2
I1018 08:51:41.637209 11069 net.cpp:419] relu2_2 -> conv2_2 (in-place)
I1018 08:51:41.637213 11069 net.cpp:155] Setting up relu2_2
I1018 08:51:41.637215 11069 net.cpp:163] Top shape: 1 128 300 500 (19200000)
I1018 08:51:41.637217 11069 layer_factory.hpp:76] Creating layer pool2
I1018 08:51:41.637222 11069 net.cpp:110] Creating Layer pool2
I1018 08:51:41.637223 11069 net.cpp:477] pool2 <- conv2_2
I1018 08:51:41.637226 11069 net.cpp:433] pool2 -> pool2
I1018 08:51:41.637231 11069 net.cpp:155] Setting up pool2
I1018 08:51:41.637234 11069 net.cpp:163] Top shape: 1 128 150 250 (4800000)
I1018 08:51:41.637236 11069 layer_factory.hpp:76] Creating layer conv3_1
I1018 08:51:41.637240 11069 net.cpp:110] Creating Layer conv3_1
I1018 08:51:41.637243 11069 net.cpp:477] conv3_1 <- pool2
I1018 08:51:41.637246 11069 net.cpp:433] conv3_1 -> conv3_1
I1018 08:51:41.637645 11069 net.cpp:155] Setting up conv3_1
I1018 08:51:41.637652 11069 net.cpp:163] Top shape: 1 256 150 250 (9600000)
I1018 08:51:41.637658 11069 layer_factory.hpp:76] Creating layer relu3_1
I1018 08:51:41.637662 11069 net.cpp:110] Creating Layer relu3_1
I1018 08:51:41.637665 11069 net.cpp:477] relu3_1 <- conv3_1
I1018 08:51:41.637668 11069 net.cpp:419] relu3_1 -> conv3_1 (in-place)
I1018 08:51:41.637672 11069 net.cpp:155] Setting up relu3_1
I1018 08:51:41.637675 11069 net.cpp:163] Top shape: 1 256 150 250 (9600000)
I1018 08:51:41.637676 11069 layer_factory.hpp:76] Creating layer conv3_2
I1018 08:51:41.637681 11069 net.cpp:110] Creating Layer conv3_2
I1018 08:51:41.637682 11069 net.cpp:477] conv3_2 <- conv3_1
I1018 08:51:41.637686 11069 net.cpp:433] conv3_2 -> conv3_2
I1018 08:51:41.638368 11069 net.cpp:155] Setting up conv3_2
I1018 08:51:41.638375 11069 net.cpp:163] Top shape: 1 256 150 250 (9600000)
I1018 08:51:41.638380 11069 layer_factory.hpp:76] Creating layer relu3_2
I1018 08:51:41.638383 11069 net.cpp:110] Creating Layer relu3_2
I1018 08:51:41.638386 11069 net.cpp:477] relu3_2 <- conv3_2
I1018 08:51:41.638388 11069 net.cpp:419] relu3_2 -> conv3_2 (in-place)
I1018 08:51:41.638392 11069 net.cpp:155] Setting up relu3_2
I1018 08:51:41.638394 11069 net.cpp:163] Top shape: 1 256 150 250 (9600000)
I1018 08:51:41.638396 11069 layer_factory.hpp:76] Creating layer conv3_3
I1018 08:51:41.638402 11069 net.cpp:110] Creating Layer conv3_3
I1018 08:51:41.638406 11069 net.cpp:477] conv3_3 <- conv3_2
I1018 08:51:41.638409 11069 net.cpp:433] conv3_3 -> conv3_3
I1018 08:51:41.639119 11069 net.cpp:155] Setting up conv3_3
I1018 08:51:41.639128 11069 net.cpp:163] Top shape: 1 256 150 250 (9600000)
I1018 08:51:41.639133 11069 layer_factory.hpp:76] Creating layer relu3_3
I1018 08:51:41.639137 11069 net.cpp:110] Creating Layer relu3_3
I1018 08:51:41.639140 11069 net.cpp:477] relu3_3 <- conv3_3
I1018 08:51:41.639143 11069 net.cpp:419] relu3_3 -> conv3_3 (in-place)
I1018 08:51:41.639147 11069 net.cpp:155] Setting up relu3_3
I1018 08:51:41.639149 11069 net.cpp:163] Top shape: 1 256 150 250 (9600000)
I1018 08:51:41.639152 11069 layer_factory.hpp:76] Creating layer pool3
I1018 08:51:41.639155 11069 net.cpp:110] Creating Layer pool3
I1018 08:51:41.639158 11069 net.cpp:477] pool3 <- conv3_3
I1018 08:51:41.639160 11069 net.cpp:433] pool3 -> pool3
I1018 08:51:41.639165 11069 net.cpp:155] Setting up pool3
I1018 08:51:41.639168 11069 net.cpp:163] Top shape: 1 256 75 125 (2400000)
I1018 08:51:41.639169 11069 layer_factory.hpp:76] Creating layer conv4_1
I1018 08:51:41.639174 11069 net.cpp:110] Creating Layer conv4_1
I1018 08:51:41.639176 11069 net.cpp:477] conv4_1 <- pool3
I1018 08:51:41.639179 11069 net.cpp:433] conv4_1 -> conv4_1
I1018 08:51:41.640955 11069 net.cpp:155] Setting up conv4_1
I1018 08:51:41.640974 11069 net.cpp:163] Top shape: 1 512 75 125 (4800000)
I1018 08:51:41.640981 11069 layer_factory.hpp:76] Creating layer relu4_1
I1018 08:51:41.640988 11069 net.cpp:110] Creating Layer relu4_1
I1018 08:51:41.640991 11069 net.cpp:477] relu4_1 <- conv4_1
I1018 08:51:41.640995 11069 net.cpp:419] relu4_1 -> conv4_1 (in-place)
I1018 08:51:41.641001 11069 net.cpp:155] Setting up relu4_1
I1018 08:51:41.641003 11069 net.cpp:163] Top shape: 1 512 75 125 (4800000)
I1018 08:51:41.641005 11069 layer_factory.hpp:76] Creating layer conv4_2
I1018 08:51:41.641010 11069 net.cpp:110] Creating Layer conv4_2
I1018 08:51:41.641012 11069 net.cpp:477] conv4_2 <- conv4_1
I1018 08:51:41.641016 11069 net.cpp:433] conv4_2 -> conv4_2
I1018 08:51:41.644023 11069 net.cpp:155] Setting up conv4_2
I1018 08:51:41.644047 11069 net.cpp:163] Top shape: 1 512 75 125 (4800000)
I1018 08:51:41.644058 11069 layer_factory.hpp:76] Creating layer relu4_2
I1018 08:51:41.644067 11069 net.cpp:110] Creating Layer relu4_2
I1018 08:51:41.644069 11069 net.cpp:477] relu4_2 <- conv4_2
I1018 08:51:41.644074 11069 net.cpp:419] relu4_2 -> conv4_2 (in-place)
I1018 08:51:41.644083 11069 net.cpp:155] Setting up relu4_2
I1018 08:51:41.644084 11069 net.cpp:163] Top shape: 1 512 75 125 (4800000)
I1018 08:51:41.644086 11069 layer_factory.hpp:76] Creating layer conv4_3
I1018 08:51:41.644093 11069 net.cpp:110] Creating Layer conv4_3
I1018 08:51:41.644094 11069 net.cpp:477] conv4_3 <- conv4_2
I1018 08:51:41.644098 11069 net.cpp:433] conv4_3 -> conv4_3
I1018 08:51:41.647253 11069 net.cpp:155] Setting up conv4_3
I1018 08:51:41.647279 11069 net.cpp:163] Top shape: 1 512 75 125 (4800000)
I1018 08:51:41.647286 11069 layer_factory.hpp:76] Creating layer relu4_3
I1018 08:51:41.647294 11069 net.cpp:110] Creating Layer relu4_3
I1018 08:51:41.647297 11069 net.cpp:477] relu4_3 <- conv4_3
I1018 08:51:41.647301 11069 net.cpp:419] relu4_3 -> conv4_3 (in-place)
I1018 08:51:41.647307 11069 net.cpp:155] Setting up relu4_3
I1018 08:51:41.647310 11069 net.cpp:163] Top shape: 1 512 75 125 (4800000)
I1018 08:51:41.647311 11069 layer_factory.hpp:76] Creating layer pool4
I1018 08:51:41.647323 11069 net.cpp:110] Creating Layer pool4
I1018 08:51:41.647325 11069 net.cpp:477] pool4 <- conv4_3
I1018 08:51:41.647328 11069 net.cpp:433] pool4 -> pool4
I1018 08:51:41.647334 11069 net.cpp:155] Setting up pool4
I1018 08:51:41.647337 11069 net.cpp:163] Top shape: 1 512 38 63 (1225728)
I1018 08:51:41.647339 11069 layer_factory.hpp:76] Creating layer conv5_1
I1018 08:51:41.647344 11069 net.cpp:110] Creating Layer conv5_1
I1018 08:51:41.647346 11069 net.cpp:477] conv5_1 <- pool4
I1018 08:51:41.647349 11069 net.cpp:433] conv5_1 -> conv5_1
I1018 08:51:41.650318 11069 net.cpp:155] Setting up conv5_1
I1018 08:51:41.650349 11069 net.cpp:163] Top shape: 1 512 38 63 (1225728)
I1018 08:51:41.650357 11069 layer_factory.hpp:76] Creating layer relu5_1
I1018 08:51:41.650364 11069 net.cpp:110] Creating Layer relu5_1
I1018 08:51:41.650368 11069 net.cpp:477] relu5_1 <- conv5_1
I1018 08:51:41.650372 11069 net.cpp:419] relu5_1 -> conv5_1 (in-place)
I1018 08:51:41.650377 11069 net.cpp:155] Setting up relu5_1
I1018 08:51:41.650380 11069 net.cpp:163] Top shape: 1 512 38 63 (1225728)
I1018 08:51:41.650382 11069 layer_factory.hpp:76] Creating layer conv5_2
I1018 08:51:41.650388 11069 net.cpp:110] Creating Layer conv5_2
I1018 08:51:41.650389 11069 net.cpp:477] conv5_2 <- conv5_1
I1018 08:51:41.650393 11069 net.cpp:433] conv5_2 -> conv5_2
I1018 08:51:41.653427 11069 net.cpp:155] Setting up conv5_2
I1018 08:51:41.653451 11069 net.cpp:163] Top shape: 1 512 38 63 (1225728)
I1018 08:51:41.653458 11069 layer_factory.hpp:76] Creating layer relu5_2
I1018 08:51:41.653465 11069 net.cpp:110] Creating Layer relu5_2
I1018 08:51:41.653470 11069 net.cpp:477] relu5_2 <- conv5_2
I1018 08:51:41.653473 11069 net.cpp:419] relu5_2 -> conv5_2 (in-place)
I1018 08:51:41.653479 11069 net.cpp:155] Setting up relu5_2
I1018 08:51:41.653482 11069 net.cpp:163] Top shape: 1 512 38 63 (1225728)
I1018 08:51:41.653484 11069 layer_factory.hpp:76] Creating layer conv5_3
I1018 08:51:41.653489 11069 net.cpp:110] Creating Layer conv5_3
I1018 08:51:41.653494 11069 net.cpp:477] conv5_3 <- conv5_2
I1018 08:51:41.653497 11069 net.cpp:433] conv5_3 -> conv5_3
I1018 08:51:41.656579 11069 net.cpp:155] Setting up conv5_3
I1018 08:51:41.656605 11069 net.cpp:163] Top shape: 1 512 38 63 (1225728)
I1018 08:51:41.656611 11069 layer_factory.hpp:76] Creating layer relu5_3
I1018 08:51:41.656620 11069 net.cpp:110] Creating Layer relu5_3
I1018 08:51:41.656626 11069 net.cpp:477] relu5_3 <- conv5_3
I1018 08:51:41.656630 11069 net.cpp:419] relu5_3 -> conv5_3 (in-place)
I1018 08:51:41.656636 11069 net.cpp:155] Setting up relu5_3
I1018 08:51:41.656639 11069 net.cpp:163] Top shape: 1 512 38 63 (1225728)
I1018 08:51:41.656641 11069 layer_factory.hpp:76] Creating layer conv5_3_relu5_3_0_split
I1018 08:51:41.656648 11069 net.cpp:110] Creating Layer conv5_3_relu5_3_0_split
I1018 08:51:41.656651 11069 net.cpp:477] conv5_3_relu5_3_0_split <- conv5_3
I1018 08:51:41.656653 11069 net.cpp:433] conv5_3_relu5_3_0_split -> conv5_3_relu5_3_0_split_0
I1018 08:51:41.656657 11069 net.cpp:433] conv5_3_relu5_3_0_split -> conv5_3_relu5_3_0_split_1
I1018 08:51:41.656661 11069 net.cpp:433] conv5_3_relu5_3_0_split -> conv5_3_relu5_3_0_split_2
I1018 08:51:41.656666 11069 net.cpp:155] Setting up conv5_3_relu5_3_0_split
I1018 08:51:41.656667 11069 net.cpp:163] Top shape: 1 512 38 63 (1225728)
I1018 08:51:41.656669 11069 net.cpp:163] Top shape: 1 512 38 63 (1225728)
I1018 08:51:41.656672 11069 net.cpp:163] Top shape: 1 512 38 63 (1225728)
I1018 08:51:41.656674 11069 layer_factory.hpp:76] Creating layer roi_pool5_readonly
I1018 08:51:41.656687 11069 net.cpp:110] Creating Layer roi_pool5_readonly
I1018 08:51:41.656688 11069 net.cpp:477] roi_pool5_readonly <- conv5_3_relu5_3_0_split_0
I1018 08:51:41.656692 11069 net.cpp:477] roi_pool5_readonly <- rois_data_1_split_0
I1018 08:51:41.656694 11069 net.cpp:433] roi_pool5_readonly -> pool5_readonly
I1018 08:51:41.656698 11069 roi_pooling_layer.cpp:30] Spatial scale: 0.0625
I1018 08:51:41.656708 11069 net.cpp:155] Setting up roi_pool5_readonly
I1018 08:51:41.656710 11069 net.cpp:163] Top shape: 1 512 7 7 (25088)
I1018 08:51:41.656713 11069 layer_factory.hpp:76] Creating layer fc6_readonly
I1018 08:51:41.656718 11069 net.cpp:110] Creating Layer fc6_readonly
I1018 08:51:41.656720 11069 net.cpp:477] fc6_readonly <- pool5_readonly
I1018 08:51:41.656723 11069 net.cpp:433] fc6_readonly -> fc6_readonly
I1018 08:51:41.791693 11069 net.cpp:155] Setting up fc6_readonly
I1018 08:51:41.791718 11069 net.cpp:163] Top shape: 1 4096 (4096)
I1018 08:51:41.791726 11069 layer_factory.hpp:76] Creating layer relu6_readonly
I1018 08:51:41.791734 11069 net.cpp:110] Creating Layer relu6_readonly
I1018 08:51:41.791738 11069 net.cpp:477] relu6_readonly <- fc6_readonly
I1018 08:51:41.791743 11069 net.cpp:419] relu6_readonly -> fc6_readonly (in-place)
I1018 08:51:41.791751 11069 net.cpp:155] Setting up relu6_readonly
I1018 08:51:41.791754 11069 net.cpp:163] Top shape: 1 4096 (4096)
I1018 08:51:41.791756 11069 layer_factory.hpp:76] Creating layer drop6_readonly
I1018 08:51:41.791761 11069 net.cpp:110] Creating Layer drop6_readonly
I1018 08:51:41.791764 11069 net.cpp:477] drop6_readonly <- fc6_readonly
I1018 08:51:41.791766 11069 net.cpp:419] drop6_readonly -> fc6_readonly (in-place)
I1018 08:51:41.791770 11069 net.cpp:155] Setting up drop6_readonly
I1018 08:51:41.791774 11069 net.cpp:163] Top shape: 1 4096 (4096)
I1018 08:51:41.791775 11069 layer_factory.hpp:76] Creating layer fc7_readonly
I1018 08:51:41.791780 11069 net.cpp:110] Creating Layer fc7_readonly
I1018 08:51:41.791782 11069 net.cpp:477] fc7_readonly <- fc6_readonly
I1018 08:51:41.791785 11069 net.cpp:433] fc7_readonly -> fc7_readonly
I1018 08:51:41.813987 11069 net.cpp:155] Setting up fc7_readonly
I1018 08:51:41.814008 11069 net.cpp:163] Top shape: 1 4096 (4096)
I1018 08:51:41.814016 11069 layer_factory.hpp:76] Creating layer relu7_readonly
I1018 08:51:41.814023 11069 net.cpp:110] Creating Layer relu7_readonly
I1018 08:51:41.814028 11069 net.cpp:477] relu7_readonly <- fc7_readonly
I1018 08:51:41.814031 11069 net.cpp:419] relu7_readonly -> fc7_readonly (in-place)
I1018 08:51:41.814038 11069 net.cpp:155] Setting up relu7_readonly
I1018 08:51:41.814039 11069 net.cpp:163] Top shape: 1 4096 (4096)
I1018 08:51:41.814041 11069 layer_factory.hpp:76] Creating layer drop7_readonly
I1018 08:51:41.814046 11069 net.cpp:110] Creating Layer drop7_readonly
I1018 08:51:41.814049 11069 net.cpp:477] drop7_readonly <- fc7_readonly
I1018 08:51:41.814051 11069 net.cpp:419] drop7_readonly -> fc7_readonly (in-place)
I1018 08:51:41.814055 11069 net.cpp:155] Setting up drop7_readonly
I1018 08:51:41.814059 11069 net.cpp:163] Top shape: 1 4096 (4096)
I1018 08:51:41.814059 11069 layer_factory.hpp:76] Creating layer fc7_readonly_drop7_readonly_0_split
I1018 08:51:41.814064 11069 net.cpp:110] Creating Layer fc7_readonly_drop7_readonly_0_split
I1018 08:51:41.814065 11069 net.cpp:477] fc7_readonly_drop7_readonly_0_split <- fc7_readonly
I1018 08:51:41.814069 11069 net.cpp:433] fc7_readonly_drop7_readonly_0_split -> fc7_readonly_drop7_readonly_0_split_0
I1018 08:51:41.814072 11069 net.cpp:433] fc7_readonly_drop7_readonly_0_split -> fc7_readonly_drop7_readonly_0_split_1
I1018 08:51:41.814079 11069 net.cpp:155] Setting up fc7_readonly_drop7_readonly_0_split
I1018 08:51:41.814081 11069 net.cpp:163] Top shape: 1 4096 (4096)
I1018 08:51:41.814085 11069 net.cpp:163] Top shape: 1 4096 (4096)
I1018 08:51:41.814086 11069 layer_factory.hpp:76] Creating layer cls_score_readonly
I1018 08:51:41.814092 11069 net.cpp:110] Creating Layer cls_score_readonly
I1018 08:51:41.814095 11069 net.cpp:477] cls_score_readonly <- fc7_readonly_drop7_readonly_0_split_0
I1018 08:51:41.814097 11069 net.cpp:433] cls_score_readonly -> cls_score_readonly
I1018 08:51:41.815820 11069 net.cpp:155] Setting up cls_score_readonly
I1018 08:51:41.815825 11069 net.cpp:163] Top shape: 1 21 (21)
I1018 08:51:41.815829 11069 layer_factory.hpp:76] Creating layer bbox_pred_readonly
I1018 08:51:41.815834 11069 net.cpp:110] Creating Layer bbox_pred_readonly
I1018 08:51:41.815836 11069 net.cpp:477] bbox_pred_readonly <- fc7_readonly_drop7_readonly_0_split_1
I1018 08:51:41.815840 11069 net.cpp:433] bbox_pred_readonly -> bbox_pred_readonly
OHEMDataLayer: name_to_top: {'bbox_outside_weights_hard': 4, 'bbox_inside_weights_hard': 3, 'labels_hard': 1, 'rois_hard': 0, 'bbox_targets_hard': 2}
I1018 08:51:41.822891 11069 net.cpp:155] Setting up bbox_pred_readonly
I1018 08:51:41.822898 11069 net.cpp:163] Top shape: 1 84 (84)
I1018 08:51:41.822906 11069 layer_factory.hpp:76] Creating layer cls_prob_readonly
I1018 08:51:41.822911 11069 net.cpp:110] Creating Layer cls_prob_readonly
I1018 08:51:41.822916 11069 net.cpp:477] cls_prob_readonly <- cls_score_readonly
I1018 08:51:41.822921 11069 net.cpp:433] cls_prob_readonly -> cls_prob_readonly
I1018 08:51:41.822934 11069 net.cpp:155] Setting up cls_prob_readonly
I1018 08:51:41.822937 11069 net.cpp:163] Top shape: 1 21 (21)
I1018 08:51:41.822939 11069 layer_factory.hpp:76] Creating layer hard_roi_mining
I1018 08:51:41.822979 11069 net.cpp:110] Creating Layer hard_roi_mining
I1018 08:51:41.822983 11069 net.cpp:477] hard_roi_mining <- cls_prob_readonly
I1018 08:51:41.822985 11069 net.cpp:477] hard_roi_mining <- bbox_pred_readonly
I1018 08:51:41.822988 11069 net.cpp:477] hard_roi_mining <- rois_data_1_split_1
I1018 08:51:41.822990 11069 net.cpp:477] hard_roi_mining <- labels
I1018 08:51:41.822993 11069 net.cpp:477] hard_roi_mining <- bbox_targets
I1018 08:51:41.822995 11069 net.cpp:477] hard_roi_mining <- bbox_inside_weights
I1018 08:51:41.822998 11069 net.cpp:477] hard_roi_mining <- bbox_outside_weights
I1018 08:51:41.823000 11069 net.cpp:433] hard_roi_mining -> rois_hard
I1018 08:51:41.823005 11069 net.cpp:433] hard_roi_mining -> labels_hard
I1018 08:51:41.823009 11069 net.cpp:433] hard_roi_mining -> bbox_targets_hard
I1018 08:51:41.823014 11069 net.cpp:433] hard_roi_mining -> bbox_inside_weights_hard
I1018 08:51:41.823016 11069 net.cpp:433] hard_roi_mining -> bbox_outside_weights_hard
I1018 08:51:41.823336 11069 net.cpp:155] Setting up hard_roi_mining
I1018 08:51:41.823343 11069 net.cpp:163] Top shape: 1 5 (5)
I1018 08:51:41.823345 11069 net.cpp:163] Top shape: 1 (1)
I1018 08:51:41.823348 11069 net.cpp:163] Top shape: 1 84 (84)
I1018 08:51:41.823349 11069 net.cpp:163] Top shape: 1 84 (84)
I1018 08:51:41.823351 11069 net.cpp:163] Top shape: 1 84 (84)
I1018 08:51:41.823354 11069 layer_factory.hpp:76] Creating layer roi_pool5
I1018 08:51:41.823359 11069 net.cpp:110] Creating Layer roi_pool5
I1018 08:51:41.823361 11069 net.cpp:477] roi_pool5 <- conv5_3_relu5_3_0_split_1
I1018 08:51:41.823364 11069 net.cpp:477] roi_pool5 <- rois_hard
I1018 08:51:41.823367 11069 net.cpp:433] roi_pool5 -> pool5
I1018 08:51:41.823372 11069 roi_pooling_layer.cpp:30] Spatial scale: 0.0625
I1018 08:51:41.823379 11069 net.cpp:155] Setting up roi_pool5
I1018 08:51:41.823382 11069 net.cpp:163] Top shape: 1 512 7 7 (25088)
I1018 08:51:41.823385 11069 layer_factory.hpp:76] Creating layer fc6
I1018 08:51:41.823388 11069 net.cpp:110] Creating Layer fc6
I1018 08:51:41.823390 11069 net.cpp:477] fc6 <- pool5
I1018 08:51:41.823393 11069 net.cpp:433] fc6 -> fc6
I1018 08:51:41.970379 11069 net.cpp:155] Setting up fc6
I1018 08:51:41.970404 11069 net.cpp:163] Top shape: 1 4096 (4096)
I1018 08:51:41.970410 11069 net.cpp:537] Sharing parameters 'fc6_w' owned by layer 'fc6_readonly', param index 0
I1018 08:51:41.970415 11069 net.cpp:537] Sharing parameters 'fc6_b' owned by layer 'fc6_readonly', param index 1
I1018 08:51:41.970418 11069 layer_factory.hpp:76] Creating layer relu6
I1018 08:51:41.970427 11069 net.cpp:110] Creating Layer relu6
I1018 08:51:41.970430 11069 net.cpp:477] relu6 <- fc6
I1018 08:51:41.970435 11069 net.cpp:419] relu6 -> fc6 (in-place)
I1018 08:51:41.970441 11069 net.cpp:155] Setting up relu6
I1018 08:51:41.970445 11069 net.cpp:163] Top shape: 1 4096 (4096)
I1018 08:51:41.970448 11069 layer_factory.hpp:76] Creating layer drop6
I1018 08:51:41.970453 11069 net.cpp:110] Creating Layer drop6
I1018 08:51:41.970454 11069 net.cpp:477] drop6 <- fc6
I1018 08:51:41.970458 11069 net.cpp:419] drop6 -> fc6 (in-place)
I1018 08:51:41.970463 11069 net.cpp:155] Setting up drop6
I1018 08:51:41.970464 11069 net.cpp:163] Top shape: 1 4096 (4096)
I1018 08:51:41.970466 11069 layer_factory.hpp:76] Creating layer fc7
I1018 08:51:41.970471 11069 net.cpp:110] Creating Layer fc7
I1018 08:51:41.970474 11069 net.cpp:477] fc7 <- fc6
I1018 08:51:41.970476 11069 net.cpp:433] fc7 -> fc7
I1018 08:51:41.993355 11069 net.cpp:155] Setting up fc7
I1018 08:51:41.993378 11069 net.cpp:163] Top shape: 1 4096 (4096)
I1018 08:51:41.993384 11069 net.cpp:537] Sharing parameters 'fc7_w' owned by layer 'fc7_readonly', param index 0
I1018 08:51:41.993389 11069 net.cpp:537] Sharing parameters 'fc7_b' owned by layer 'fc7_readonly', param index 1
I1018 08:51:41.993392 11069 layer_factory.hpp:76] Creating layer relu7
I1018 08:51:41.993401 11069 net.cpp:110] Creating Layer relu7
I1018 08:51:41.993404 11069 net.cpp:477] relu7 <- fc7
I1018 08:51:41.993409 11069 net.cpp:419] relu7 -> fc7 (in-place)
I1018 08:51:41.993417 11069 net.cpp:155] Setting up relu7
I1018 08:51:41.993419 11069 net.cpp:163] Top shape: 1 4096 (4096)
I1018 08:51:41.993422 11069 layer_factory.hpp:76] Creating layer drop7
I1018 08:51:41.993427 11069 net.cpp:110] Creating Layer drop7
I1018 08:51:41.993428 11069 net.cpp:477] drop7 <- fc7
I1018 08:51:41.993432 11069 net.cpp:419] drop7 -> fc7 (in-place)
I1018 08:51:41.993435 11069 net.cpp:155] Setting up drop7
I1018 08:51:41.993438 11069 net.cpp:163] Top shape: 1 4096 (4096)
I1018 08:51:41.993440 11069 layer_factory.hpp:76] Creating layer fc7_drop7_0_split
I1018 08:51:41.993444 11069 net.cpp:110] Creating Layer fc7_drop7_0_split
I1018 08:51:41.993446 11069 net.cpp:477] fc7_drop7_0_split <- fc7
I1018 08:51:41.993449 11069 net.cpp:433] fc7_drop7_0_split -> fc7_drop7_0_split_0
I1018 08:51:41.993453 11069 net.cpp:433] fc7_drop7_0_split -> fc7_drop7_0_split_1
I1018 08:51:41.993458 11069 net.cpp:155] Setting up fc7_drop7_0_split
I1018 08:51:41.993459 11069 net.cpp:163] Top shape: 1 4096 (4096)
I1018 08:51:41.993463 11069 net.cpp:163] Top shape: 1 4096 (4096)
I1018 08:51:41.993464 11069 layer_factory.hpp:76] Creating layer cls_score
I1018 08:51:41.993469 11069 net.cpp:110] Creating Layer cls_score
I1018 08:51:41.993471 11069 net.cpp:477] cls_score <- fc7_drop7_0_split_0
I1018 08:51:41.993476 11069 net.cpp:433] cls_score -> cls_score
I1018 08:51:41.995210 11069 net.cpp:155] Setting up cls_score
I1018 08:51:41.995215 11069 net.cpp:163] Top shape: 1 21 (21)
I1018 08:51:41.995219 11069 net.cpp:537] Sharing parameters 'cls_score_w' owned by layer 'cls_score_readonly', param index 0
I1018 08:51:41.995223 11069 net.cpp:537] Sharing parameters 'cls_score_b' owned by layer 'cls_score_readonly', param index 1
I1018 08:51:41.995224 11069 layer_factory.hpp:76] Creating layer bbox_pred
I1018 08:51:41.995229 11069 net.cpp:110] Creating Layer bbox_pred
I1018 08:51:41.995231 11069 net.cpp:477] bbox_pred <- fc7_drop7_0_split_1
I1018 08:51:41.995235 11069 net.cpp:433] bbox_pred -> bbox_pred
I1018 08:51:42.002377 11069 net.cpp:155] Setting up bbox_pred
I1018 08:51:42.002385 11069 net.cpp:163] Top shape: 1 84 (84)
I1018 08:51:42.002389 11069 net.cpp:537] Sharing parameters 'bbox_pred_w' owned by layer 'bbox_pred_readonly', param index 0
I1018 08:51:42.002393 11069 net.cpp:537] Sharing parameters 'bbox_pred_b' owned by layer 'bbox_pred_readonly', param index 1
I1018 08:51:42.002394 11069 layer_factory.hpp:76] Creating layer loss_cls
I1018 08:51:42.002399 11069 net.cpp:110] Creating Layer loss_cls
I1018 08:51:42.002403 11069 net.cpp:477] loss_cls <- cls_score
…
I1018 08:51:42.002492 11069 net.cpp:433] loss_bbox -> loss_bbox
I1018 08:51:42.002516 11069 net.cpp:155] Setting up loss_bbox
I1018 08:51:42.002519 11069 net.cpp:163] Top shape: (1)
I1018 08:51:42.002521 11069 net.cpp:168]     with loss weight 1
I1018 08:51:42.002524 11069 layer_factory.hpp:76] Creating layer rpn_conv/3x3
I1018 08:51:42.002529 11069 net.cpp:110] Creating Layer rpn_conv/3x3
I1018 08:51:42.002532 11069 net.cpp:477] rpn_conv/3x3 <- conv5_3_relu5_3_0_split_2
I1018 08:51:42.002535 11069 net.cpp:433] rpn_conv/3x3 -> rpn/output
I1018 08:51:42.050302 11069 net.cpp:155] Setting up rpn_conv/3x3
I1018 08:51:42.050323 11069 net.cpp:163] Top shape: 1 512 38 63 (1225728)
I1018 08:51:42.050330 11069 layer_factory.hpp:76] Creating layer rpn_relu/3x3
I1018 08:51:42.050338 11069 net.cpp:110] Creating Layer rpn_relu/3x3
I1018 08:51:42.050343 11069 net.cpp:477] rpn_relu/3x3 <- rpn/output
I1018 08:51:42.050348 11069 net.cpp:419] rpn_relu/3x3 -> rpn/output (in-place)
I1018 08:51:42.050354 11069 net.cpp:155] Setting up rpn_relu/3x3
I1018 08:51:42.050356 11069 net.cpp:163] Top shape: 1 512 38 63 (1225728)
I1018 08:51:42.050359 11069 layer_factory.hpp:76] Creating layer rpn/output_rpn_relu/3x3_0_split
I1018 08:51:42.050362 11069 net.cpp:110] Creating Layer rpn/output_rpn_relu/3x3_0_split
I1018 08:51:42.050364 11069 net.cpp:477] rpn/output_rpn_relu/3x3_0_split <- rpn/output
I1018 08:51:42.050369 11069 net.cpp:433] rpn/output_rpn_relu/3x3_0_split -> rpn/output_rpn_relu/3x3_0_split_0
I1018 08:51:42.050372 11069 net.cpp:433] rpn/output_rpn_relu/3x3_0_split -> rpn/output_rpn_relu/3x3_0_split_1
I1018 08:51:42.050376 11069 net.cpp:155] Setting up rpn/output_rpn_relu/3x3_0_split
I1018 08:51:42.050379 11069 net.cpp:163] Top shape: 1 512 38 63 (1225728)
I1018 08:51:42.050382 11069 net.cpp:163] Top shape: 1 512 38 63 (1225728)
I1018 08:51:42.050384 11069 layer_factory.hpp:76] Creating layer rpn_cls_score
I1018 08:51:42.050390 11069 net.cpp:110] Creating Layer rpn_cls_score
I1018 08:51:42.050391 11069 net.cpp:477] rpn_cls_score <- rpn/output_rpn_relu/3x3_0_split_0
I1018 08:51:42.050395 11069 net.cpp:433] rpn_cls_score -> rpn_cls_score
I1018 08:51:42.050633 11069 net.cpp:155] Setting up rpn_cls_score
I1018 08:51:42.050638 11069 net.cpp:163] Top shape: 1 18 38 63 (43092)
I1018 08:51:42.050642 11069 layer_factory.hpp:76] Creating layer rpn_bbox_pred
I1018 08:51:42.050647 11069 net.cpp:110] Creating Layer rpn_bbox_pred
I1018 08:51:42.050648 11069 net.cpp:477] rpn_bbox_pred <- rpn/output_rpn_relu/3x3_0_split_1
I1018 08:51:42.050652 11069 net.cpp:433] rpn_bbox_pred -> rpn_bbox_pred
I1018 08:51:42.051055 11069 net.cpp:155] Setting up rpn_bbox_pred
I1018 08:51:42.051059 11069 net.cpp:163] Top shape: 1 36 38 63 (86184)
I1018 08:51:42.051064 11069 layer_factory.hpp:76] Creating layer silence_rpn_cls_score
I1018 08:51:42.051066 11069 net.cpp:110] Creating Layer silence_rpn_cls_score
I1018 08:51:42.051069 11069 net.cpp:477] silence_rpn_cls_score <- rpn_cls_score
I1018 08:51:42.051072 11069 net.cpp:155] Setting up silence_rpn_cls_score
I1018 08:51:42.051074 11069 layer_factory.hpp:76] Creating layer silence_rpn_bbox_pred
…
           'RPN_POST_NMS_TOP_N': 2000,
           'RPN_PRE_NMS_TOP_N': 12000,
           'SCALES': [600],
           'SNAPSHOT_INFIX': '',
           'SNAPSHOT_ITERS': 10000,
           'USE_FLIPPED': True,
           'USE_PREFETCH': False},
 'USE_GPU_NMS': True}
WARNING: Logging before InitGoogleLogging() is written to STDERR
I1018 13:21:49.102931 12584 net.cpp:50] Initializing net from parameters: 
name: "VGG_ILSVRC_16_layers"
input: "data"
input: "im_info"
state {
  phase: TEST
}
input_shape {
  dim: 1
  dim: 3
  dim: 224
  dim: 224
}
input_shape {
  dim: 1
  dim: 3
}
layer {
  name: "conv1_1"
  type: "Convolution"
  bottom: "data"
  top: "conv1_1"
  convolution_param {
    num_output: 64
    pad: 1
    kernel_size: 3
  }
}
layer {
  name: "relu1_1"
  type: "ReLU"
  bottom: "conv1_1"
  top: "conv1_1"
}
layer {
  name: "conv1_2"
  type: "Convolution"
  bottom: "conv1_1"
  top: "conv1_2"
  convolution_param {
    num_output: 64
    pad: 1
    kernel_size: 3
  }
}
layer {
  name: "relu1_2"
  type: "ReLU"
  bottom: "conv1_2"
  top: "conv1_2"
}
layer {
  name: "pool1"
  type: "Pooling"
  bottom: "conv1_2"
  top: "pool1"
  pooling_param {
    pool: MAX
    kernel_size: 2
    stride: 2
  }
}
layer {
  name: "conv2_1"
  type: "Convolution"
  bottom: "pool1"
  top: "conv2_1"
  convolution_param {
    num_output: 128
    pad: 1
    kernel_size: 3
  }
}
layer {
  name: "relu2_1"
  type: "ReLU"
  bottom: "conv2_1"
  top: "conv2_1"
}
layer {
  name: "conv2_2"
  type: "Convolution"
  bottom: "conv2_1"
  top: "conv2_2"
  convolution_param {
    num_output: 128
    pad: 1
    kernel_size: 3
  }
}
layer {
  name: "relu2_2"
  type: "ReLU"
  bottom: "conv2_2"
  top: "conv2_2"
}
layer {
  name: "pool2"
  type: "Pooling"
  bottom: "conv2_2"
  top: "pool2"
  pooling_param {
    pool: MAX
    kernel_size: 2
    stride: 2
  }
}
layer {
  name: "conv3_1"
  type: "Convolution"
  bottom: "pool2"
  top: "conv3_1"
  convolution_param {
    num_output: 256
    pad: 1
    kernel_size: 3
  }
}
layer {
  name: "relu3_1"
  type: "ReLU"
  bottom: "conv3_1"
  top: "conv3_1"
}
layer {
  name: "conv3_2"
  type: "Convolution"
  bottom: "conv3_1"
  top: "conv3_2"
  convolution_param {
    num_output: 256
    pad: 1
    kernel_size: 3
  }
}
layer {
  name: "relu3_2"
  type: "ReLU"
  bottom: "conv3_2"
  top: "conv3_2"
}
layer {
  name: "conv3_3"
  type: "Convolution"
  bottom: "conv3_2"
  top: "conv3_3"
  convolution_param {
    num_output: 256
    pad: 1
    kernel_size: 3
  }
}
layer {
  name: "relu3_3"
  type: "ReLU"
  bottom: "conv3_3"
  top: "conv3_3"
}
layer {
  name: "pool3"
  type: "Pooling"
  bottom: "conv3_3"
  top: "pool3"
  pooling_param {
    pool: MAX
    kernel_size: 2
    stride: 2
  }
}
layer {
  name: "conv4_1"
  type: "Convolution"
  bottom: "pool3"
  top: "conv4_1"
  convolution_param {
    num_output: 512
    pad: 1
    kernel_size: 3
  }
}
layer {
  name: "relu4_1"
  type: "ReLU"
  bottom: "conv4_1"
  top: "conv4_1"
}
layer {
  name: "conv4_2"
  type: "Convolution"
  bottom: "conv4_1"
  top: "conv4_2"
  convolution_param {
    num_output: 512
    pad: 1
    kernel_size: 3
  }
}
layer {
  name: "relu4_2"
  type: "ReLU"
  bottom: "conv4_2"
  top: "conv4_2"
}
layer {
  name: "conv4_3"
  type: "Convolution"
  bottom: "conv4_2"
  top: "conv4_3"
  convolution_param {
    num_output: 512
    pad: 1
    kernel_size: 3
  }
}
layer {
  name: "relu4_3"
  type: "ReLU"
  bottom: "conv4_3"
  top: "conv4_3"
}
layer {
  name: "pool4"
  type: "Pooling"
  bottom: "conv4_3"
  top: "pool4"
  pooling_param {
    pool: MAX
    kernel_size: 2
    stride: 2
  }
}
layer {
  name: "conv5_1"
  type: "Convolution"
  bottom: "pool4"
  top: "conv5_1"
  convolution_param {
    num_output: 512
    pad: 1
    kernel_size: 3
  }
}
layer {
  name: "relu5_1"
  type: "ReLU"
  bottom: "conv5_1"
  top: "conv5_1"
}
layer {
  name: "conv5_2"
  type: "Convolution"
  bottom: "conv5_1"
  top: "conv5_2"
  convolution_param {
    num_output: 512
    pad: 1
    kernel_size: 3
  }
}
layer {
  name: "relu5_2"
  type: "ReLU"
  bottom: "conv5_2"
  top: "conv5_2"
}
layer {
  name: "conv5_3"
  type: "Convolution"
  bottom: "conv5_2"
  top: "conv5_3"
  convolution_param {
    num_output: 512
    pad: 1
    kernel_size: 3
  }
}
layer {
  name: "relu5_3"
  type: "ReLU"
  bottom: "conv5_3"
  top: "conv5_3"
}
layer {
  name: "rpn_conv/3x3"
  type: "Convolution"
  bottom: "conv5_3"
  top: "rpn/output"
  convolution_param {
    num_output: 512
    pad: 1
    kernel_size: 3
    stride: 1
  }
}
layer {
  name: "rpn_relu/3x3"
  type: "ReLU"
  bottom: "rpn/output"
  top: "rpn/output"
}
layer {
  name: "rpn_cls_score"
  type: "Convolution"
  bottom: "rpn/output"
  top: "rpn_cls_score"
  convolution_param {
    num_output: 18
    pad: 0
    kernel_size: 1
    stride: 1
  }
}
layer {
  name: "rpn_bbox_pred"
  type: "Convolution"
  bottom: "rpn/output"
  top: "rpn_bbox_pred"
  convolution_param {
    num_output: 36
    pad: 0
    kernel_size: 1
    stride: 1
  }
}
layer {
  name: "rpn_cls_score_reshape"
  type: "Reshape"
  bottom: "rpn_cls_score"
  top: "rpn_cls_score_reshape"
  reshape_param {
    shape {
      dim: 0
      dim: 2
      dim: -1
      dim: 0
    }
  }
}
layer {
  name: "rpn_cls_prob"
  type: "Softmax"
  bottom: "rpn_cls_score_reshape"
  top: "rpn_cls_prob"
}
layer {
  name: "rpn_cls_prob_reshape"
  type: "Reshape"
  bottom: "rpn_cls_prob"
  top: "rpn_cls_prob_reshape"
  reshape_param {
    shape {
      dim: 0
      dim: 18
      dim: -1
      dim: 0
    }
  }
}
layer {
  name: "proposal"
  type: "Python"
  bottom: "rpn_cls_prob_reshape"
  bottom: "rpn_bbox_pred"
  bottom: "im_info"
  top: "rois"
  python_param {
    module: "rpn.proposal_layer"
    layer: "ProposalLayer"
    param_str: "\'feat_stride\': 16"
  }
}
layer {
  name: "roi_pool5"
  type: "ROIPooling"
  bottom: "conv5_3"
  bottom: "rois"
  top: "pool5"
  roi_pooling_param {
    pooled_h: 7
    pooled_w: 7
    spatial_scale: 0.0625
  }
}
layer {
  name: "fc6"
  type: "InnerProduct"
  bottom: "pool5"
  top: "fc6"
  inner_product_param {
    num_output: 4096
  }
}
layer {
  name: "relu6"
  type: "ReLU"
  bottom: "fc6"
  top: "fc6"
}
layer {
  name: "fc7"
  type: "InnerProduct"
  bottom: "fc6"
  top: "fc7"
  inner_product_param {
    num_output: 4096
  }
}
layer {
  name: "relu7"
  type: "ReLU"
  bottom: "fc7"
  top: "fc7"
}
layer {
  name: "cls_score"
  type: "InnerProduct"
  bottom: "fc7"
  top: "cls_score"
  inner_product_param {
    num_output: 21
  }
}
layer {
  name: "bbox_pred"
  type: "InnerProduct"
  bottom: "fc7"
  top: "bbox_pred"
  inner_product_param {
    num_output: 84
  }
}
layer {
  name: "cls_prob"
  type: "Softmax"
  bottom: "cls_score"
  top: "cls_prob"
}
I1018 13:21:49.103029 12584 net.cpp:435] Input 0 -> data
I1018 13:21:49.103039 12584 net.cpp:435] Input 1 -> im_info
I1018 13:21:49.103049 12584 layer_factory.hpp:76] Creating layer conv1_1
I1018 13:21:49.103056 12584 net.cpp:110] Creating Layer conv1_1
I1018 13:21:49.103060 12584 net.cpp:477] conv1_1 <- data
I1018 13:21:49.103062 12584 net.cpp:433] conv1_1 -> conv1_1
I1018 13:21:49.107458 12584 net.cpp:155] Setting up conv1_1
I1018 13:21:49.107475 12584 net.cpp:163] Top shape: 1 64 224 224 (3211264)
I1018 13:21:49.107483 12584 layer_factory.hpp:76] Creating layer relu1_1
I1018 13:21:49.107491 12584 net.cpp:110] Creating Layer relu1_1
I1018 13:21:49.107492 12584 net.cpp:477] relu1_1 <- conv1_1
I1018 13:21:49.107496 12584 net.cpp:419] relu1_1 -> conv1_1 (in-place)
I1018 13:21:49.107504 12584 net.cpp:155] Setting up relu1_1
I1018 13:21:49.107507 12584 net.cpp:163] Top shape: 1 64 224 224 (3211264)
I1018 13:21:49.107509 12584 layer_factory.hpp:76] Creating layer conv1_2
I1018 13:21:49.107513 12584 net.cpp:110] Creating Layer conv1_2
I1018 13:21:49.107514 12584 net.cpp:477] conv1_2 <- conv1_1
I1018 13:21:49.107517 12584 net.cpp:433] conv1_2 -> conv1_2
I1018 13:21:49.107574 12584 net.cpp:155] Setting up conv1_2
I1018 13:21:49.107578 12584 net.cpp:163] Top shape: 1 64 224 224 (3211264)
I1018 13:21:49.107583 12584 layer_factory.hpp:76] Creating layer relu1_2
I1018 13:21:49.107587 12584 net.cpp:110] Creating Layer relu1_2
I1018 13:21:49.107589 12584 net.cpp:477] relu1_2 <- conv1_2
I1018 13:21:49.107592 12584 net.cpp:419] relu1_2 -> conv1_2 (in-place)
I1018 13:21:49.107595 12584 net.cpp:155] Setting up relu1_2
I1018 13:21:49.107597 12584 net.cpp:163] Top shape: 1 64 224 224 (3211264)
I1018 13:21:49.107599 12584 layer_factory.hpp:76] Creating layer pool1
I1018 13:21:49.107604 12584 net.cpp:110] Creating Layer pool1
I1018 13:21:49.107605 12584 net.cpp:477] pool1 <- conv1_2
I1018 13:21:49.107607 12584 net.cpp:433] pool1 -> pool1
I1018 13:21:49.107614 12584 net.cpp:155] Setting up pool1
I1018 13:21:49.107615 12584 net.cpp:163] Top shape: 1 64 112 112 (802816)
I1018 13:21:49.107619 12584 layer_factory.hpp:76] Creating layer conv2_1
I1018 13:21:49.107621 12584 net.cpp:110] Creating Layer conv2_1
I1018 13:21:49.107623 12584 net.cpp:477] conv2_1 <- pool1
I1018 13:21:49.107625 12584 net.cpp:433] conv2_1 -> conv2_1
I1018 13:21:49.108150 12584 net.cpp:155] Setting up conv2_1
I1018 13:21:49.108157 12584 net.cpp:163] Top shape: 1 128 112 112 (1605632)
I1018 13:21:49.108163 12584 layer_factory.hpp:76] Creating layer relu2_1
I1018 13:21:49.108167 12584 net.cpp:110] Creating Layer relu2_1
I1018 13:21:49.108170 12584 net.cpp:477] relu2_1 <- conv2_1
I1018 13:21:49.108172 12584 net.cpp:419] relu2_1 -> conv2_1 (in-place)
I1018 13:21:49.108175 12584 net.cpp:155] Setting up relu2_1
I1018 13:21:49.108178 12584 net.cpp:163] Top shape: 1 128 112 112 (1605632)
I1018 13:21:49.108180 12584 layer_factory.hpp:76] Creating layer conv2_2
I1018 13:21:49.108183 12584 net.cpp:110] Creating Layer conv2_2
I1018 13:21:49.108186 12584 net.cpp:477] conv2_2 <- conv2_1
I1018 13:21:49.108188 12584 net.cpp:433] conv2_2 -> conv2_2
I1018 13:21:49.108273 12584 net.cpp:155] Setting up conv2_2
I1018 13:21:49.108276 12584 net.cpp:163] Top shape: 1 128 112 112 (1605632)
I1018 13:21:49.108280 12584 layer_factory.hpp:76] Creating layer relu2_2
I1018 13:21:49.108283 12584 net.cpp:110] Creating Layer relu2_2
I1018 13:21:49.108286 12584 net.cpp:477] relu2_2 <- conv2_2
I1018 13:21:49.108289 12584 net.cpp:419] relu2_2 -> conv2_2 (in-place)
I1018 13:21:49.108291 12584 net.cpp:155] Setting up relu2_2
I1018 13:21:49.108294 12584 net.cpp:163] Top shape: 1 128 112 112 (1605632)
I1018 13:21:49.108295 12584 layer_factory.hpp:76] Creating layer pool2
I1018 13:21:49.108299 12584 net.cpp:110] Creating Layer pool2
I1018 13:21:49.108300 12584 net.cpp:477] pool2 <- conv2_2
I1018 13:21:49.108304 12584 net.cpp:433] pool2 -> pool2
I1018 13:21:49.108311 12584 net.cpp:155] Setting up pool2
I1018 13:21:49.108314 12584 net.cpp:163] Top shape: 1 128 56 56 (401408)
I1018 13:21:49.108316 12584 layer_factory.hpp:76] Creating layer conv3_1
I1018 13:21:49.108319 12584 net.cpp:110] Creating Layer conv3_1
I1018 13:21:49.108321 12584 net.cpp:477] conv3_1 <- pool2
I1018 13:21:49.108324 12584 net.cpp:433] conv3_1 -> conv3_1
I1018 13:21:49.108800 12584 net.cpp:155] Setting up conv3_1
I1018 13:21:49.108808 12584 net.cpp:163] Top shape: 1 256 56 56 (802816)
I1018 13:21:49.108814 12584 layer_factory.hpp:76] Creating layer relu3_1
I1018 13:21:49.108817 12584 net.cpp:110] Creating Layer relu3_1
I1018 13:21:49.108819 12584 net.cpp:477] relu3_1 <- conv3_1
I1018 13:21:49.108822 12584 net.cpp:419] relu3_1 -> conv3_1 (in-place)
I1018 13:21:49.108825 12584 net.cpp:155] Setting up relu3_1
I1018 13:21:49.108829 12584 net.cpp:163] Top shape: 1 256 56 56 (802816)
I1018 13:21:49.108830 12584 layer_factory.hpp:76] Creating layer conv3_2
I1018 13:21:49.108834 12584 net.cpp:110] Creating Layer conv3_2
I1018 13:21:49.108835 12584 net.cpp:477] conv3_2 <- conv3_1
I1018 13:21:49.108840 12584 net.cpp:433] conv3_2 -> conv3_2
I1018 13:21:49.109501 12584 net.cpp:155] Setting up conv3_2
I1018 13:21:49.109508 12584 net.cpp:163] Top shape: 1 256 56 56 (802816)
I1018 13:21:49.109513 12584 layer_factory.hpp:76] Creating layer relu3_2
I1018 13:21:49.109516 12584 net.cpp:110] Creating Layer relu3_2
I1018 13:21:49.109519 12584 net.cpp:477] relu3_2 <- conv3_2
I1018 13:21:49.109520 12584 net.cpp:419] relu3_2 -> conv3_2 (in-place)
I1018 13:21:49.109524 12584 net.cpp:155] Setting up relu3_2
I1018 13:21:49.109526 12584 net.cpp:163] Top shape: 1 256 56 56 (802816)
I1018 13:21:49.109529 12584 layer_factory.hpp:76] Creating layer conv3_3
I1018 13:21:49.109532 12584 net.cpp:110] Creating Layer conv3_3
I1018 13:21:49.109534 12584 net.cpp:477] conv3_3 <- conv3_2
I1018 13:21:49.109537 12584 net.cpp:433] conv3_3 -> conv3_3
I1018 13:21:49.110240 12584 net.cpp:155] Setting up conv3_3
I1018 13:21:49.110246 12584 net.cpp:163] Top shape: 1 256 56 56 (802816)
I1018 13:21:49.110251 12584 layer_factory.hpp:76] Creating layer relu3_3
I1018 13:21:49.110255 12584 net.cpp:110] Creating Layer relu3_3
I1018 13:21:49.110256 12584 net.cpp:477] relu3_3 <- conv3_3
I1018 13:21:49.110260 12584 net.cpp:419] relu3_3 -> conv3_3 (in-place)
I1018 13:21:49.110263 12584 net.cpp:155] Setting up relu3_3
I1018 13:21:49.110266 12584 net.cpp:163] Top shape: 1 256 56 56 (802816)
I1018 13:21:49.110268 12584 layer_factory.hpp:76] Creating layer pool3
I1018 13:21:49.110273 12584 net.cpp:110] Creating Layer pool3
I1018 13:21:49.110275 12584 net.cpp:477] pool3 <- conv3_3
I1018 13:21:49.110277 12584 net.cpp:433] pool3 -> pool3
I1018 13:21:49.110282 12584 net.cpp:155] Setting up pool3
I1018 13:21:49.110285 12584 net.cpp:163] Top shape: 1 256 28 28 (200704)
I1018 13:21:49.110286 12584 layer_factory.hpp:76] Creating layer conv4_1
I1018 13:21:49.110290 12584 net.cpp:110] Creating Layer conv4_1
I1018 13:21:49.110291 12584 net.cpp:477] conv4_1 <- pool3
I1018 13:21:49.110294 12584 net.cpp:433] conv4_1 -> conv4_1
I1018 13:21:49.111826 12584 net.cpp:155] Setting up conv4_1
I1018 13:21:49.111843 12584 net.cpp:163] Top shape: 1 512 28 28 (401408)
I1018 13:21:49.111850 12584 layer_factory.hpp:76] Creating layer relu4_1
I1018 13:21:49.111855 12584 net.cpp:110] Creating Layer relu4_1
I1018 13:21:49.111858 12584 net.cpp:477] relu4_1 <- conv4_1
I1018 13:21:49.111862 12584 net.cpp:419] relu4_1 -> conv4_1 (in-place)
I1018 13:21:49.111866 12584 net.cpp:155] Setting up relu4_1
I1018 13:21:49.111870 12584 net.cpp:163] Top shape: 1 512 28 28 (401408)
I1018 13:21:49.111871 12584 layer_factory.hpp:76] Creating layer conv4_2
I1018 13:21:49.111876 12584 net.cpp:110] Creating Layer conv4_2
I1018 13:21:49.111878 12584 net.cpp:477] conv4_2 <- conv4_1
I1018 13:21:49.111881 12584 net.cpp:433] conv4_2 -> conv4_2
I1018 13:21:49.114917 12584 net.cpp:155] Setting up conv4_2
I1018 13:21:49.114940 12584 net.cpp:163] Top shape: 1 512 28 28 (401408)
I1018 13:21:49.114953 12584 layer_factory.hpp:76] Creating layer relu4_2
I1018 13:21:49.114959 12584 net.cpp:110] Creating Layer relu4_2
I1018 13:21:49.114962 12584 net.cpp:477] relu4_2 <- conv4_2
I1018 13:21:49.114966 12584 net.cpp:419] relu4_2 -> conv4_2 (in-place)
I1018 13:21:49.114971 12584 net.cpp:155] Setting up relu4_2
I1018 13:21:49.114974 12584 net.cpp:163] Top shape: 1 512 28 28 (401408)
I1018 13:21:49.114976 12584 layer_factory.hpp:76] Creating layer conv4_3
I1018 13:21:49.114980 12584 net.cpp:110] Creating Layer conv4_3
I1018 13:21:49.114981 12584 net.cpp:477] conv4_3 <- conv4_2
I1018 13:21:49.114984 12584 net.cpp:433] conv4_3 -> conv4_3
I1018 13:21:49.118141 12584 net.cpp:155] Setting up conv4_3
I1018 13:21:49.118165 12584 net.cpp:163] Top shape: 1 512 28 28 (401408)
I1018 13:21:49.118172 12584 layer_factory.hpp:76] Creating layer relu4_3
I1018 13:21:49.118180 12584 net.cpp:110] Creating Layer relu4_3
I1018 13:21:49.118182 12584 net.cpp:477] relu4_3 <- conv4_3
I1018 13:21:49.118187 12584 net.cpp:419] relu4_3 -> conv4_3 (in-place)
I1018 13:21:49.118192 12584 net.cpp:155] Setting up relu4_3
I1018 13:21:49.118196 12584 net.cpp:163] Top shape: 1 512 28 28 (401408)
I1018 13:21:49.118196 12584 layer_factory.hpp:76] Creating layer pool4
I1018 13:21:49.118201 12584 net.cpp:110] Creating Layer pool4
I1018 13:21:49.118202 12584 net.cpp:477] pool4 <- conv4_3
I1018 13:21:49.118206 12584 net.cpp:433] pool4 -> pool4
I1018 13:21:49.118212 12584 net.cpp:155] Setting up pool4
I1018 13:21:49.118216 12584 net.cpp:163] Top shape: 1 512 14 14 (100352)
I1018 13:21:49.118217 12584 layer_factory.hpp:76] Creating layer conv5_1
I1018 13:21:49.118221 12584 net.cpp:110] Creating Layer conv5_1
I1018 13:21:49.118223 12584 net.cpp:477] conv5_1 <- pool4
I1018 13:21:49.118227 12584 net.cpp:433] conv5_1 -> conv5_1
I1018 13:21:49.121393 12584 net.cpp:155] Setting up conv5_1
I1018 13:21:49.121417 12584 net.cpp:163] Top shape: 1 512 14 14 (100352)
I1018 13:21:49.121424 12584 layer_factory.hpp:76] Creating layer relu5_1
I1018 13:21:49.121431 12584 net.cpp:110] Creating Layer relu5_1
I1018 13:21:49.121434 12584 net.cpp:477] relu5_1 <- conv5_1
I1018 13:21:49.121438 12584 net.cpp:419] relu5_1 -> conv5_1 (in-place)
I1018 13:21:49.121444 12584 net.cpp:155] Setting up relu5_1
I1018 13:21:49.121446 12584 net.cpp:163] Top shape: 1 512 14 14 (100352)
I1018 13:21:49.121448 12584 layer_factory.hpp:76] Creating layer conv5_2
I1018 13:21:49.121453 12584 net.cpp:110] Creating Layer conv5_2
I1018 13:21:49.121454 12584 net.cpp:477] conv5_2 <- conv5_1
I1018 13:21:49.121457 12584 net.cpp:433] conv5_2 -> conv5_2
I1018 13:21:49.124474 12584 net.cpp:155] Setting up conv5_2
I1018 13:21:49.124496 12584 net.cpp:163] Top shape: 1 512 14 14 (100352)
I1018 13:21:49.124505 12584 layer_factory.hpp:76] Creating layer relu5_2
I1018 13:21:49.124511 12584 net.cpp:110] Creating Layer relu5_2
I1018 13:21:49.124513 12584 net.cpp:477] relu5_2 <- conv5_2
I1018 13:21:49.124517 12584 net.cpp:419] relu5_2 -> conv5_2 (in-place)
I1018 13:21:49.124522 12584 net.cpp:155] Setting up relu5_2
I1018 13:21:49.124524 12584 net.cpp:163] Top shape: 1 512 14 14 (100352)
I1018 13:21:49.124526 12584 layer_factory.hpp:76] Creating layer conv5_3
I1018 13:21:49.124531 12584 net.cpp:110] Creating Layer conv5_3
I1018 13:21:49.124532 12584 net.cpp:477] conv5_3 <- conv5_2
I1018 13:21:49.124536 12584 net.cpp:433] conv5_3 -> conv5_3
I1018 13:21:49.127670 12584 net.cpp:155] Setting up conv5_3
I1018 13:21:49.127692 12584 net.cpp:163] Top shape: 1 512 14 14 (100352)
I1018 13:21:49.127701 12584 layer_factory.hpp:76] Creating layer relu5_3
I1018 13:21:49.127708 12584 net.cpp:110] Creating Layer relu5_3
I1018 13:21:49.127712 12584 net.cpp:477] relu5_3 <- conv5_3
I1018 13:21:49.127715 12584 net.cpp:419] relu5_3 -> conv5_3 (in-place)
I1018 13:21:49.127720 12584 net.cpp:155] Setting up relu5_3
I1018 13:21:49.127723 12584 net.cpp:163] Top shape: 1 512 14 14 (100352)
I1018 13:21:49.127725 12584 layer_factory.hpp:76] Creating layer conv5_3_relu5_3_0_split
I1018 13:21:49.127734 12584 net.cpp:110] Creating Layer conv5_3_relu5_3_0_split
I1018 13:21:49.127737 12584 net.cpp:477] conv5_3_relu5_3_0_split <- conv5_3
I1018 13:21:49.127739 12584 net.cpp:433] conv5_3_relu5_3_0_split -> conv5_3_relu5_3_0_split_0
I1018 13:21:49.127743 12584 net.cpp:433] conv5_3_relu5_3_0_split -> conv5_3_relu5_3_0_split_1
I1018 13:21:49.127748 12584 net.cpp:155] Setting up conv5_3_relu5_3_0_split
I1018 13:21:49.127749 12584 net.cpp:163] Top shape: 1 512 14 14 (100352)
I1018 13:21:49.127753 12584 net.cpp:163] Top shape: 1 512 14 14 (100352)
I1018 13:21:49.127754 12584 layer_factory.hpp:76] Creating layer rpn_conv/3x3
I1018 13:21:49.127758 12584 net.cpp:110] Creating Layer rpn_conv/3x3
I1018 13:21:49.127760 12584 net.cpp:477] rpn_conv/3x3 <- conv5_3_relu5_3_0_split_0
I1018 13:21:49.127763 12584 net.cpp:433] rpn_conv/3x3 -> rpn/output
I1018 13:21:49.130872 12584 net.cpp:155] Setting up rpn_conv/3x3
I1018 13:21:49.130895 12584 net.cpp:163] Top shape: 1 512 14 14 (100352)
I1018 13:21:49.130903 12584 layer_factory.hpp:76] Creating layer rpn_relu/3x3
I1018 13:21:49.130913 12584 net.cpp:110] Creating Layer rpn_relu/3x3
I1018 13:21:49.130918 12584 net.cpp:477] rpn_relu/3x3 <- rpn/output
I1018 13:21:49.130921 12584 net.cpp:419] rpn_relu/3x3 -> rpn/output (in-place)
I1018 13:21:49.130928 12584 net.cpp:155] Setting up rpn_relu/3x3
I1018 13:21:49.130929 12584 net.cpp:163] Top shape: 1 512 14 14 (100352)
I1018 13:21:49.130931 12584 layer_factory.hpp:76] Creating layer rpn/output_rpn_relu/3x3_0_split
I1018 13:21:49.130936 12584 net.cpp:110] Creating Layer rpn/output_rpn_relu/3x3_0_split
I1018 13:21:49.130939 12584 net.cpp:477] rpn/output_rpn_relu/3x3_0_split <- rpn/output
I1018 13:21:49.130941 12584 net.cpp:433] rpn/output_rpn_relu/3x3_0_split -> rpn/output_rpn_relu/3x3_0_split_0
I1018 13:21:49.130945 12584 net.cpp:433] rpn/output_rpn_relu/3x3_0_split -> rpn/output_rpn_relu/3x3_0_split_1
I1018 13:21:49.130949 12584 net.cpp:155] Setting up rpn/output_rpn_relu/3x3_0_split
I1018 13:21:49.130951 12584 net.cpp:163] Top shape: 1 512 14 14 (100352)
I1018 13:21:49.130954 12584 net.cpp:163] Top shape: 1 512 14 14 (100352)
I1018 13:21:49.130955 12584 layer_factory.hpp:76] Creating layer rpn_cls_score
I1018 13:21:49.130960 12584 net.cpp:110] Creating Layer rpn_cls_score
I1018 13:21:49.130962 12584 net.cpp:477] rpn_cls_score <- rpn/output_rpn_relu/3x3_0_split_0
I1018 13:21:49.130965 12584 net.cpp:433] rpn_cls_score -> rpn_cls_score
I1018 13:21:49.131006 12584 net.cpp:155] Setting up rpn_cls_score
I1018 13:21:49.131011 12584 net.cpp:163] Top shape: 1 18 14 14 (3528)
I1018 13:21:49.131013 12584 layer_factory.hpp:76] Creating layer rpn_bbox_pred
I1018 13:21:49.131017 12584 net.cpp:110] Creating Layer rpn_bbox_pred
I1018 13:21:49.131019 12584 net.cpp:477] rpn_bbox_pred <- rpn/output_rpn_relu/3x3_0_split_1
I1018 13:21:49.131021 12584 net.cpp:433] rpn_bbox_pred -> rpn_bbox_pred
I1018 13:21:49.131062 12584 net.cpp:155] Setting up rpn_bbox_pred
I1018 13:21:49.131067 12584 net.cpp:163] Top shape: 1 36 14 14 (7056)
I1018 13:21:49.131069 12584 layer_factory.hpp:76] Creating layer rpn_cls_score_reshape
I1018 13:21:49.131074 12584 net.cpp:110] Creating Layer rpn_cls_score_reshape
I1018 13:21:49.131078 12584 net.cpp:477] rpn_cls_score_reshape <- rpn_cls_score
I1018 13:21:49.131079 12584 net.cpp:433] rpn_cls_score_reshape -> rpn_cls_score_reshape
I1018 13:21:49.131085 12584 net.cpp:155] Setting up rpn_cls_score_reshape
I1018 13:21:49.131088 12584 net.cpp:163] Top shape: 1 2 126 14 (3528)
I1018 13:21:49.131090 12584 layer_factory.hpp:76] Creating layer rpn_cls_prob
I1018 13:21:49.131093 12584 net.cpp:110] Creating Layer rpn_cls_prob
I1018 13:21:49.131095 12584 net.cpp:477] rpn_cls_prob <- rpn_cls_score_reshape
I1018 13:21:49.131098 12584 net.cpp:433] rpn_cls_prob -> rpn_cls_prob
I1018 13:21:49.131113 12584 net.cpp:155] Setting up rpn_cls_prob
I1018 13:21:49.131115 12584 net.cpp:163] Top shape: 1 2 126 14 (3528)
I1018 13:21:49.131117 12584 layer_factory.hpp:76] Creating layer rpn_cls_prob_reshape
I1018 13:21:49.131121 12584 net.cpp:110] Creating Layer rpn_cls_prob_reshape
I1018 13:21:49.131124 12584 net.cpp:477] rpn_cls_prob_reshape <- rpn_cls_prob
I1018 13:21:49.131126 12584 net.cpp:433] rpn_cls_prob_reshape -> rpn_cls_prob_reshape
I1018 13:21:49.131130 12584 net.cpp:155] Setting up rpn_cls_prob_reshape
I1018 13:21:49.131132 12584 net.cpp:163] Top shape: 1 18 14 14 (3528)
I1018 13:21:49.131134 12584 layer_factory.hpp:76] Creating layer proposal
I1018 13:21:49.131431 12584 net.cpp:110] Creating Layer proposal
I1018 13:21:49.131438 12584 net.cpp:477] proposal <- rpn_cls_prob_reshape
I1018 13:21:49.131443 12584 net.cpp:477] proposal <- rpn_bbox_pred
I1018 13:21:49.131444 12584 net.cpp:477] proposal <- im_info
I1018 13:21:49.131448 12584 net.cpp:433] proposal -> rois
I1018 13:21:49.131855 12584 net.cpp:155] Setting up proposal
I1018 13:21:49.131863 12584 net.cpp:163] Top shape: 1 5 (5)
I1018 13:21:49.131866 12584 layer_factory.hpp:76] Creating layer roi_pool5
I1018 13:21:49.131875 12584 net.cpp:110] Creating Layer roi_pool5
I1018 13:21:49.131877 12584 net.cpp:477] roi_pool5 <- conv5_3_relu5_3_0_split_1
I1018 13:21:49.131880 12584 net.cpp:477] roi_pool5 <- rois
I1018 13:21:49.131883 12584 net.cpp:433] roi_pool5 -> pool5
I1018 13:21:49.131888 12584 roi_pooling_layer.cpp:30] Spatial scale: 0.0625
I1018 13:21:49.131897 12584 net.cpp:155] Setting up roi_pool5
I1018 13:21:49.131901 12584 net.cpp:163] Top shape: 1 512 7 7 (25088)
I1018 13:21:49.131902 12584 layer_factory.hpp:76] Creating layer fc6
I1018 13:21:49.131906 12584 net.cpp:110] Creating Layer fc6
I1018 13:21:49.131908 12584 net.cpp:477] fc6 <- pool5
I1018 13:21:49.131911 12584 net.cpp:433] fc6 -> fc6
I1018 13:21:49.288488 12584 net.cpp:155] Setting up fc6
I1018 13:21:49.288514 12584 net.cpp:163] Top shape: 1 4096 (4096)
I1018 13:21:49.288528 12584 layer_factory.hpp:76] Creating layer relu6
I1018 13:21:49.288537 12584 net.cpp:110] Creating Layer relu6
I1018 13:21:49.288540 12584 net.cpp:477] relu6 <- fc6
I1018 13:21:49.288550 12584 net.cpp:419] relu6 -> fc6 (in-place)
I1018 13:21:49.288558 12584 net.cpp:155] Setting up relu6
I1018 13:21:49.288561 12584 net.cpp:163] Top shape: 1 4096 (4096)
I1018 13:21:49.288564 12584 layer_factory.hpp:76] Creating layer fc7
I1018 13:21:49.288568 12584 net.cpp:110] Creating Layer fc7
I1018 13:21:49.288570 12584 net.cpp:477] fc7 <- fc6
I1018 13:21:49.288573 12584 net.cpp:433] fc7 -> fc7
I1018 13:21:49.312454 12584 net.cpp:155] Setting up fc7
I1018 13:21:49.312479 12584 net.cpp:163] Top shape: 1 4096 (4096)
I1018 13:21:49.312489 12584 layer_factory.hpp:76] Creating layer relu7
I1018 13:21:49.312497 12584 net.cpp:110] Creating Layer relu7
I1018 13:21:49.312500 12584 net.cpp:477] relu7 <- fc7
I1018 13:21:49.312505 12584 net.cpp:419] relu7 -> fc7 (in-place)
I1018 13:21:49.312511 12584 net.cpp:155] Setting up relu7
I1018 13:21:49.312515 12584 net.cpp:163] Top shape: 1 4096 (4096)
I1018 13:21:49.312516 12584 layer_factory.hpp:76] Creating layer fc7_relu7_0_split
I1018 13:21:49.312520 12584 net.cpp:110] Creating Layer fc7_relu7_0_split
I1018 13:21:49.312523 12584 net.cpp:477] fc7_relu7_0_split <- fc7
I1018 13:21:49.312526 12584 net.cpp:433] fc7_relu7_0_split -> fc7_relu7_0_split_0
I1018 13:21:49.312530 12584 net.cpp:433] fc7_relu7_0_split -> fc7_relu7_0_split_1
I1018 13:21:49.312535 12584 net.cpp:155] Setting up fc7_relu7_0_split
I1018 13:21:49.312537 12584 net.cpp:163] Top shape: 1 4096 (4096)
I1018 13:21:49.312539 12584 net.cpp:163] Top shape: 1 4096 (4096)
I1018 13:21:49.312541 12584 layer_factory.hpp:76] Creating layer cls_score
I1018 13:21:49.312546 12584 net.cpp:110] Creating Layer cls_score
I1018 13:21:49.312548 12584 net.cpp:477] cls_score <- fc7_relu7_0_split_0
I1018 13:21:49.312552 12584 net.cpp:433] cls_score -> cls_score
I1018 13:21:49.312978 12584 net.cpp:155] Setting up cls_score
I1018 13:21:49.312984 12584 net.cpp:163] Top shape: 1 21 (21)
I1018 13:21:49.312989 12584 layer_factory.hpp:76] Creating layer bbox_pred
I1018 13:21:49.312994 12584 net.cpp:110] Creating Layer bbox_pred
I1018 13:21:49.312996 12584 net.cpp:477] bbox_pred <- fc7_relu7_0_split_1
I1018 13:21:49.313000 12584 net.cpp:433] bbox_pred -> bbox_pred
I1018 13:21:49.313573 12584 net.cpp:155] Setting up bbox_pred
I1018 13:21:49.313580 12584 net.cpp:163] Top shape: 1 84 (84)
I1018 13:21:49.313586 12584 layer_factory.hpp:76] Creating layer cls_prob
I1018 13:21:49.313591 12584 net.cpp:110] Creating Layer cls_prob
I1018 13:21:49.313593 12584 net.cpp:477] cls_prob <- cls_score
I1018 13:21:49.313597 12584 net.cpp:433] cls_prob -> cls_prob
I1018 13:21:49.313613 12584 net.cpp:155] Setting up cls_prob
I1018 13:21:49.313616 12584 net.cpp:163] Top shape: 1 21 (21)
I1018 13:21:49.313618 12584 net.cpp:240] cls_prob does not need backward computation.
I1018 13:21:49.313621 12584 net.cpp:240] bbox_pred does not need backward computation.
I1018 13:21:49.313622 12584 net.cpp:240] cls_score does not need backward computation.
I1018 13:21:49.313624 12584 net.cpp:240] fc7_relu7_0_split does not need backward computation.
I1018 13:21:49.313627 12584 net.cpp:240] relu7 does not need backward computation.
…
